AML/HW1/Theory/data/mlp1.pt (torch, 428561 bytes, 12 tensors)

weight f4 [64, 784]
0	0xbd5fa0d5	-0.05459674
1	0xbbde9c26	-0.0067935167
2	0xbd0164a9	-0.031590138
3	0x3d9129d6	0.07088058
4	0x3d4678ed	0.048455168
5	0xbd8b71a6	-0.06808786
6	0x3a32a8e6	0.0006815329
7	0xbb015a57	-0.0019737685
8	0xbceedb39	-0.029157268
9	0xbce4894e	-0.027897503
10	0x3c633377	0.013867251
11	0x3d728953	0.059212994
12	0xbd295c03	-0.041347515
13	0xbc9b7d3b	-0.018980613
14	0x3d41773c	0.04723285
15	0xbd0c0094	-0.03418024
16	0x3ddc77cc	0.10765037
17	0xbd21d3e9	-0.039508734
18	0xbd1a6dfa	-0.037702538
19	0xbc55601b	-0.013023402
20	0x3d2d8e89	0.04237226
21	0xbc1a2a1f	-0.0094094565
22	0xbd562dcf	-0.05228978
23	0x3cd1be61	0.025603475
24	0xbd09da31	-0.03365535
25	0x3cd97a1d	0.026547486
26	0x3d114114	0.035462454
27	0x3c89deab	0.01682981
28	0x3d137e3f	0.03600907
29	0x3db29123	0.08719089
30	0xbd666c29	-0.056255493
31	0xbcc336fa	-0.023829926
32	0x3cb9bb3d	0.02267229
33	0xbc0067ea	-0.007837275
34	0x3db66fa6	0.08908014
35	0x3cd789ae	0.026310768
36	0x3bc8cc86	0.0061278967
37	0x3c2f51fd	0.0107007
38	0x3cacac95	0.021078387
39	0x3d3630b5	0.044480044
40	0x3d3b9b14	0.04580219
41	0xbd3f419c	-0.04669343
42	0xbcf37f62	-0.029723827
43	0xbdc3def5	-0.0956401
44	0x3c77e0a3	0.015129241
45	0x3c44e235	0.012016823
46	0xbd475a6c	-0.048670217
47	0x3d8b0829	0.06788666
48	0xbc4e8457	-0.012604794
49	0xbdb3ba2e	-0.08775745
50	0xb7802470	-1.5275757e-05
51	0x3caf37c2	0.021388892
52	0xbd47f648	-0.048818856
53	0xbd3e1013	-0.04640205
54	0xbc926de1	-0.01787466
55	0xbd27f778	-0.04100749
56	0x3d91c08c	0.071168035
57	0x3b065cb2	0.0020502028
58	0xbd2f45d9	-0.04279122
59	0xbd778d4f	-0.060437497
60	0xbd47882d	-0.04871385
61	0xbd1c8070	-0.038208425
62	0xbd1fbbab	-0.038997333
63	0x3ca8a98a	0.020588655
64	0x3c82ecfc	0.015982144
65	0xbceba48c	-0.028764986
66	0x3b4c5ca5	0.003118315
67	0xb991e390	-0.00027826102
68	0x3c08c6b9	0.00834816
69	0x3d4d7787	0.05016282
70	0x3bc8795e	0.0061179837
71	0x3c57d188	0.013172515
72	0x3d198747	0.037482526
73	0x3c0ac02c	0.008468669
74	0x3d0c3cfc	0.034237847
75	0x3d4d8604	0.050176635
76	0x3d2e7186	0.042588733
77	0x3d3a899a	0.045541383
78	0x3c65ce41	0.014026226
79	0x3c41466a	0.011796573
80	0xbd99e787	-0.075148635
81	0xbd6403cc	-0.055667683
82	0x3c5e0a43	0.013552251
83	0x3d00ff0a	0.031493224
84	0xbc9d4570	-0.01919815
85	0xbd16c2d6	-0.036806904
86	0xbb20264c	-0.002443689
87	0x3d55235e	0.052035682
88	0x3c4bddc4	0.01244301
89	0xb9d55b5e	-0.000406946
90	0x3be584c5	0.0070043528
91	0x3d8af2a5	0.06784562
92	0x3bf1859e	0.0073706647
93	0x3cd98410	0.02655223
94	0xbd2faaa2	-0.042887338
95	0xbdb0bc4a	-0.08629663
96	0x3d160a99	0.0366312
97	0xbc7d7995	-0.015470882
98	0x3b8acd53	0.0042359023
99	0xbc175ab0	-0.00923793
100	0xbc0f5657	-0.008748612
101	0x3d6a3b8a	0.057185687
102	0xbd02416f	-0.031800684
103	0xbc81b934	-0.015835382
104	0x3dc576f3	0.096418284
105	0xbbdff37a	-0.0068344446
106	0xbc9e31d5	-0.019310871
107	0xbd19cd06	-0.03754904
108	0x3d6cb1b7	0.05778667
109	0x3cc328a5	0.023823092
110	0xbb32fc70	-0.002731111
111	0xbbc88a78	-0.0061200224
112	0xbcafb66b	-0.021449288
113	0xbd89a4bd	-0.067208745
114	0x3d174c2a	0.03693787
115	0xbd1a7b12	-0.037715025
116	0x3b97d7da	0.004633886
117	0x3d893350	0.0669924
118	0xbd4de33e	-0.050265543
119	0xbbd284f9	-0.006424543
120	0xbdb92dd2	-0.09041943
121	0xbd0902f4	-0.033450082
122	0xbd520ebc	-0.051283583
123	0x3c2ceeaa	0.010554949
124	0x3bc0bbb2	0.00588175
125	0xbd8387f6	-0.06422417
126	0xbc088fbb	-0.008335049
127	0x3d6741fe	0.05645942
128	0x3d0cba15	0.03435715
129	0xbb86cda7	-0.004113871
130	0xbc4d5a45	-0.012533729
131	0x3c2ffdda	0.010741675
132	0xbd1fcd9e	-0.03901445
133	0xbd116995	-0.03550108
134	0x3d1d5523	0.03841127
135	0x3d259454	0.04042466
136	0x3c1d48fe	0.009599922
137	0xbd878a3b	-0.06618162
138	0x3ca5c4c1	0.020235421
139	0x3bb61a76	0.0055573536
140	0x3c129ca2	0.008948477
141	0x3c824b21	0.015904965
142	0xbb84514e	-0.0040380126
143	0xbd44f388	-0.048083812
144	0xbdbb0944	-0.09132627
145	0x3d4635c5	0.048391122
146	0x3d010834	0.031501964
147	0xbde17708	-0.110090315
148	0xbc9d1049	-0.019172804
149	0xbd6ee763	-0.058326136
150	0xbcfd709b	-0.030937484
151	0x3c4abb9d	0.012373832
152	0x3d591e36	0.053007327
153	0x3ddbb75f	0.10728335
154	0x3d1bfce6	0.03808298
155	0xbc29f711	-0.010373847
156	0xbce362b1	-0.02775702
157	0xbbbb52f0	-0.005716674
158	0x3d96d80a	0.07365425
159	0xbd1ac7cb	-0.037788194
160	0x3b925c58	0.0044665746
161	0xba2b6f86	-0.00065397506
162	0x3df0c417	0.11756151
163	0xbd30be94	-0.0431505
164	0xbce2dbb2	-0.02769265
165	0x3b95a14b	0.0045663468
166	0x3c090b6b	0.008364539
167	0xbca5ed06	-0.020254623
168	0xbd95d176	-0.07315342
169	0x3cf03442	0.029321793
170	0xbbe3efae	-0.0069560623
171	0xbe0096da	-0.12557545
172	0xbd3b0a02	-0.04566384
173	0x3d6d766c	0.057974264
174	0x3d19be57	0.037535038
175	0xbd47ad60	-0.048749328
176	0x3cb2866b	0.021792611
177	0x3cdd06bc	0.02698075
178	0xbcc01b37	-0.023450477
179	0x3d15beac	0.036558792
180	0x3d0d1191	0.03444058
181	0xbc6d517a	-0.014484758
182	0xbc96ecb3	-0.018423414
183	0xbd0636e4	-0.03276719
184	0x3cfc8454	0.030824818
185	0xbd239a27	-0.039941933
186	0xbd72147f	-0.059101578
187	0x3d27a06e	0.040924482
188	0xbdc72f01	-0.09725762
189	0x3c8220c1	0.015884759
190	0x3c5049c8	0.012712903
191	0xbc93382f	-0.017971126
192	0xbc92121e	-0.017830905
193	0xbd6511a8	-0.05592504
194	0x3d044279	0.032289956
195	0x3c9ec0ac	0.019378982
196	0xbd12a86e	-0.03580516
197	0x3e08f186	0.13373384
198	0xbce56f87	-0.028007282
199	0xbdd2dc4d	-0.10295925
200	0xbd225f8e	-0.03964191
201	0x3bdfb8c9	0.006827448
202	0xbd04a976	-0.032388173
203	0x3d15b5b3	0.036550235
204	0x3da684ba	0.08130784
205	0xbcdd4050	-0.027008206
206	0x3cbaaacf	0.022786526
207	0x3d0d6616	0.034521185
208	0x3aa3d310	0.0012498815
209	0xbc534e51	-0.01289709
210	0x3dc2bd6d	0.09508786
211	0xbcc86c06	-0.024465572
212	0x3c0021e6	0.007820582
213	0x3dbcb2cd	0.09213791
214	0x3da1d4e7	0.07901936
215	0x3d943360	0.072363615
216	0x3d80f841	0.06297351
217	0xbc90ad1d	-0.017660672
218	0xbd382131	-0.04495353
219	0xbd005bc4	-0.031337515
220	0x3cc4207c	0.023941271
221	0x3d0d8085	0.034546394
222	0x3cba700b	0.022758504
223	0xbd837b68	-0.06420022
224	0xbb4acfd5	-0.0030946631
225	0x3c974a17	0.018467946
226	0xbdbbcfb9	-0.09170479
227	0xbcb94aff	-0.022618769
228	0xbcb5e5d0	-0.02220431
229	0x3c5121df	0.012764423
230	0x3cc12028	0.023574904
231	0xbc71cdca	-0.014758537
232	0x3c18717e	0.009304402
233	0xbc931e32	-0.017958734
234	0xbd67400d	-0.056457568
235	0xbd6258bf	-0.055260416
236	0xbccfc619	-0.025363015
237	0xbcae2bdb	-0.021261146
238	0xbc7dbc16	-0.015486738
239	0xbccffddd	-0.025389606
240	0xbcc3d2f1	-0.023904296
241	0xbd5c2579	-0.053746674
242	0xbd9772ad	-0.073949195
243	0x3c9218c2	0.017834071
244	0xbc2c673a	-0.010522658
245	0xbc35eff8	-0.011104576
246	0xbccf9f10	-0.025344402
247	0xbda08a16	-0.07838838
248	0x3c85a3c7	0.016313447
249	0xbd68bc19	-0.05682001
250	0xbb80a644	-0.0039260704
251	0x3b89a5c8	0.004200671
252	0x3c9bcf90	0.019019872
253	0xbcb89682	-0.022532705
254	0xbd2df00e	-0.042465262
255	0xbc9a36d3	-0.01882497

bias f4 [64]
0	0x3cb8a801	0.022541048
1	0xba6763b4	-0.00088268076
2	0xbd052f30	-0.032515705
3	0xbc5e1691	-0.013555185
4	0x3cf70b9d	0.030156905
5	0x3b81f235	0.003965641
6	0x3c1de520	0.009637147
7	0xbbe9f21b	-0.007139457
8	0xbbe79131	-0.0070668687
9	0x3d109859	0.03530154
10	0x3cfd5e53	0.030928766
11	0x3c4bb6bd	0.012433705
12	0xb9b3b38b	-0.0003427531
13	0x3c9a3421	0.018823685
14	0xbd17e77a	-0.037085988
15	0x3c1b2f7e	0.009471772
16	0x3cbc368f	0.022975234
17	0xbb8b7614	-0.0042560194
18	0xbb7aa453	-0.0038244918
19	0x3cc8a4aa	0.02449258
20	0x3c378047	0.011200017
21	0x3c842d0a	0.016134758
22	0xbc670657	-0.014100633
23	0xbc1fedfa	-0.009761328
24	0xbc0a8ea6	-0.008456862
25	0xbc337ec3	-0.010955515
26	0x3d03f7b9	0.03221867
27	0x3c9b13e0	0.018930376
28	0x3ca5d4f9	0.020243155
29	0xbcbde30f	-0.023179559
30	0x3cf79fa7	0.030227495
31	0x3c1dc032	0.009628342
32	0x3c66817b	0.0140689565
33	0x3c95efab	0.01830276
34	0x3c9042a4	0.017609902
35	0x3d2175e7	0.03941908
36	0x3bde153a	0.0067774327
37	0xbc01960b	-0.007909308
38	0x3c84a029	0.016189652
39	0x3c4e1087	0.012577183
40	0xbc9d5909	-0.019207494
41	0xbc44be65	-0.012008284
42	0xbcaf529f	-0.021401701
43	0x3cdc41aa	0.02688678
44	0x3cb72dc9	0.0223607
45	0xbce8ff39	-0.028442012
46	0xbba9d13d	-0.005182414
47	0x3b2a8b64	0.0026023025
48	0xbb2a6277	-0.002599863
49	0xbd08db54	-0.033412293
50	0xbc9a3a0e	-0.01882651
51	0xbcb82f85	-0.022483597
52	0x3c13039e	0.00897303
53	0x3b32feea	0.0027312585
54	0xbc499262	-0.012302967
55	0xbc8328ae	-0.016010609
56	0x3c8764c2	0.016527537
57	0xbc0e5fd2	-0.0086898375
58	0xbcb98251	-0.022645148
59	0x3cdce28d	0.026963497
60	0x3bf89c2c	0.0075869765
61	0x3c928c04	0.01788903
62	0xbc6ac7b5	-0.01432984
63	0xbc86d095	-0.016456882

weight f4 [32, 64]
0	0xbdfbcb0f	-0.1229459
1	0xbdd5a90e	-0.10432635
2	0xbd14b035	-0.036300857
3	0xbe0f6e8a	-0.14007011
4	0xbdd95cae	-0.1061338
5	0xbd67713c	-0.056504473
6	0xbe42ddbd	-0.19029899
7	0x3d77f0eb	0.06053249
8	0x3cf0915e	0.029366191
9	0xbe6ca0bf	-0.23108195
10	0x3d4c3811	0.049858157
11	0xbe1df937	-0.15427099
12	0xbb21cca7	-0.0024688633
13	0x3c9415e2	0.01807684
14	0xbdb30286	-0.08740716
15	0x3d8c2176	0.0684232
16	0x3e32cabc	0.1746015
17	0x3dff91e9	0.12479002
18	0x3e5a3405	0.21308906
19	0xbcea36b0	-0.02859053
20	0xbd8905ae	-0.066905364
21	0x3d59c34e	0.053164773
22	0x3e147fa7	0.1450182
23	0xbe8331d4	-0.25623953
24	0xbbe21881	-0.0068998937
25	0xbe1b9cfb	-0.15196602
26	0x3d0aebcb	0.033916276
27	0xbd3103bd	-0.043216456
28	0x3e1e505e	0.15460345
29	0xbd6d5d7a	-0.057950474
30	0xbe01cc36	-0.12675557
31	0xbcd67d34	-0.026182748
32	0x3c2f2292	0.010689395
33	0x3ed17b87	0.40914556
34	0x3e5f7d98	0.21825254
35	0x3e0500d1	0.12988593
36	0x3d959ea0	0.07305646
37	0xbd731def	-0.05935472
38	0x3e1cc23e	0.15308473
39	0xbe226309	-0.15858091
40	0x3ef7ea1d	0.48420802
41	0xbdf0dd26	-0.11760931
42	0x3e45f5ac	0.19331998
43	0x3e84d451	0.25943235
44	0xbccf2ba0	-0.025289357
45	0x3c05d912	0.008169429
46	0xbd096a95	-0.03354891
47	0x3bdba11e	0.0067025563
48	0xbe28b43c	-0.16475004
49	0x3dbad7d6	0.09123199
50	0xbd9319ca	-0.07182653
51	0xbc0efb8c	-0.008726966
52	0x3e8a2d34	0.26987612
53	0x3e15ae86	0.14617357
54	0x3e054713	0.13015394
55	0x3e1576ad	0.14596052
56	0xbdaa5010	-0.08316052
57	0xbe40ef6c	-0.18841332
58	0x3d91ab7f	0.071127884
59	0x3ebb0d89	0.36533764
60	0xbdc6af0e	-0.09701358
61	0x3df021e5	0.11725215
62	0xbd6e697e	-0.058206074
63	0xbe4bbbba	-0.19895831
64	0xbe804ff5	-0.25061002
65	0x3db49701	0.08817864
66	0x3e1f5464	0.15559536
67	0x3d685d15	0.056729395
68	0x3d47e134	0.048798755
69	0x3d4f671e	0.05063545
70	0x3dd1732e	0.10227047
71	0xbe40579b	-0.18783419
72	0xbd5a50bb	-0.053299647
73	0x3d6f09d1	0.05835897
74	0x3e159c1e	0.14610335
75	0x3cc9a7db	0.024616173
76	0xbe278b11	-0.16361643
77	0x3df4b20f	0.119480245
78	0xbe2e399e	-0.17014167
79	0x3df1080c	0.11769113
80	0x3db46633	0.088085555
81	0xbd8b7b7e	-0.06810664
82	0x3e50266f	0.20327161
83	0x3b0e8bf6	0.0021750904
84	0x3dbb9271	0.09158791
85	0x3ea50d2d	0.32236615
86	0xbe548bdc	-0.20756477
87	0x3e79f642	0.24410346
88	0x3e0d25eb	0.13783996
89	0xbebb162d	-0.36540356
90	0x3d6c2e26	0.057661198
91	0x3e450866	0.19241485
92	0xbc8746ee	-0.016513314
93	0x3d525840	0.051353693
94	0x3d7aae8e	0.061201625
95	0x3d9925f5	0.07477943
96	0x3cffe1e8	0.03123565
97	0x3e168d60	0.14702368
98	0x3a3837af	0.00070273405
99	0x3e60dc01	0.21958925
100	0xbd557b7d	-0.05211972
101	0xbd3d4358	-0.046206802
102	0x3aeb1ee9	0.0017938289
103	0xbce82d62	-0.028341953
104	0x3e56a1e7	0.20960198
105	0xbdeaf58d	-0.11472616
106	0x3c7fb70f	0.015607609
107	0x3dd5af20	0.10433793
108	0x3dddc327	0.10828238
109	0xbcb9a2b0	-0.022660583
110	0xbd282264	-0.041048422
111	0x3d589fc0	0.052886724
112	0xbdb16dab	-0.08663496
113	0xbcd415f9	-0.025889384
114	0x3c1e91bf	0.009678303
115	0x3e3990ec	0.1812169
116	0xbdc9eb3e	-0.09859322
117	0xbd36e0f8	-0.04464814
118	0x3e10537e	0.1409435
119	0x3d4bff67	0.049804118
120	0x3dc0b92c	0.09410319
121	0x3d1894aa	0.037251152
122	0x3daac06f	0.08337485
123	0xbc27ead9	-0.010248863
124	0xbc25de91	-0.010123865
125	0xbdaee2b5	-0.08539335
126	0xbe719bb3	-0.23594551
127	0x3d820483	0.06348517
128	0x3d1bb372	0.03801293
129	0xbe8b6252	-0.2722345
130	0xbe5a9272	-0.21344927
131	0xbd56983e	-0.052391283
132	0xbd1f5dc5	-0.038907785
133	0x3cd6f056	0.026237648
134	0xbd9f2398	-0.07770461
135	0xbc156746	-0.009118861
136	0x3c6133f6	0.013745299
137	0x3e76f3ad	0.24116392
138	0xbdbcc9a3	-0.09218147
139	0x3e56bfe9	0.20971645
140	0x3dac07fb	0.0839996
141	0xbca22cac	-0.019796692
142	0xbddeebb9	-0.10884804
143	0x3e5ec0e1	0.21753265
144	0x3de5ba3f	0.11217164
145	0x3cde5be1	0.02714342
146	0xbda8d239	-0.08243222
147	0xbdb1b54c	-0.08677158
148	0x3dc9ab4b	0.09847125
149	0x3e69c9e9	0.22830929
150	0x3c88e408	0.016710296
151	0x3dcad5cf	0.09904062
152	0x3e206de7	0.15666924
153	0xbc8c96fa	-0.017161835
154	0x3e28455f	0.16432713
155	0x3d492cbb	0.049114924
156	0x3e583371	0.21113373
157	0xbd478f0e	-0.048720412
158	0xbe4d7492	-0.20064
159	0x3cc49176	0.023995142
160	0x3ea8d927	0.32978174
161	0x3dae07bf	0.08497571
162	0xbe0be530	-0.13661647
163	0xbcae28d5	-0.021259705
164	0xbe3fe284	-0.18738753
165	0xbe445d49	-0.1917621
166	0x3d97e446	0.074165866
167	0x3d6a06ea	0.0571355
168	0xbe6b37d2	-0.22970513
169	0xbe1e6765	-0.1546913
170	0xbe8b39a7	-0.27192423
171	0xbe451377	-0.19245706
172	0x3e30053f	0.17189501
173	0x3df91f5d	0.12164185
174	0xbd8477fa	-0.06468196
175	0x3d9cae1b	0.076503955
176	0x3d8f6328	0.070013344
177	0xbe09febf	-0.13476084
178	0xbcfa06c0	-0.030520797
179	0x3d5a6adc	0.053324565
180	0x3d631097	0.055435743
181	0x3d881ad4	0.06645742
182	0x3dfb7535	0.12278215
183	0x3cce4dea	0.025183637
184	0xbdf42ef1	-0.11923016
185	0x3c5e081f	0.013551741
186	0x3ea5ff52	0.32421356
187	0x3eaed76d	0.34148732
188	0xbc673829	-0.014112511
189	0x3e5be8fb	0.21475594
190	0x3ddfccc9	0.109277315
191	0x3c41f8f9	0.011839145
192	0x3e8347e1	0.25640777
193	0x3d47c264	0.04876937
194	0xbdbce1e6	-0.09222774
195	0x3e0f40d1	0.13989569
196	0xbca685be	-0.020327445
197	0xbc0192c1	-0.007908524
198	0xbe040299	-0.12891616
199	0xbdfb5ddf	-0.12273764
200	0xbdeed593	-0.1166183
201	0xbe3167a5	-0.17324694
202	0xbe915368	-0.28383946
203	0xbc9c5699	-0.019084262
204	0xbc8ad612	-0.01694778
205	0x3e0a34d7	0.1349672
206	0x3c9575d2	0.018244658
207	0x3ade79b1	0.0016973523
208	0xbe0f81ce	-0.1401436
209	0x3e7e490a	0.2483255
210	0x3e57a5b8	0.2105931
211	0xbe07d0c7	-0.13263236
212	0x3e8bd227	0.2730877
213	0xbd277f54	-0.040892914
214	0x3e7d5a13	0.24741392
215	0xbdb75a14	-0.08952728
216	0x3e685964	0.2269035
217	0x3e0ab89b	0.13546984
218	0x3d72f60b	0.059316676
219	0x3e9a974d	0.30193558
220	0x3dfd5cb0	0.12371194
221	0x3d68997f	0.05678701
222	0xbd80bf17	-0.062864475
223	0x3e213061	0.15741111
224	0x3c6bc41d	0.014390019
225	0xbcac9792	-0.021068368
226	0xbe9e23ad	-0.30886593
227	0x3d8d2185	0.06891159
228	0xbd8a3063	-0.0674751
229	0x3de2d957	0.110766105
230	0x3d86bc8d	0.06578932
231	0xbce6e933	-0.02818737
232	0xbdffde8f	-0.124936216
233	0x3db260b7	0.08709853
234	0xbb1a4cab	-0.0023544233
235	0xbe1c8d2f	-0.15288232
236	0xbce0db05	-0.027448187
237	0xbb21f3f0	-0.0024712048
238	0xbd2c45c9	-0.04205874
239	0x3e0d8c39	0.13823022
240	0x3e8af9c4	0.2714368
241	0xbe49ba84	-0.19700056
242	0x3c751665	0.014958953
243	0x3d5f3310	0.054492056
244	0x3d04f8fd	0.032464016
245	0x3c30df55	0.010795434
246	0xbe3e6cdd	-0.18596216
247	0x3da0e3a6	0.078559205
248	0x3e4bd483	0.19905286
249	0xbd313f89	-0.043273482
250	0xbdd19864	-0.10234144
251	0x3e427ff8	0.18994129
252	0x3d940253	0.07227006
253	0x3d5cdc07	0.053920772
254	0xbd0d4bd8	-0.03449616
255	0x3bb53f84	0.0055312533

bias f4 [32]
0	0x3d9952a9	0.07486469
1	0xbd6944c1	-0.056950334
2	0x3d21eab4	0.03953047
3	0xbd8e59fa	-0.069507554
4	0x3a3b9691	0.000715592
5	0xbc58902f	-0.01321797
6	0x3de09c70	0.10967338
7	0x3cd5a06d	0.026077474
8	0x3d06b08c	0.032883212
9	0x3e002159	0.12512721
10	0xbe00fff2	-0.12597635
11	0x3d4d8fdf	0.050186034
12	0xbdce3584	-0.10068801
13	0xbd001eb9	-0.0312793
14	0x3dca0a33	0.098652266
15	0x3da026ec	0.07819924
16	0x3de59169	0.112093754
17	0xbd14b5d1	-0.036306206
18	0x3dadb4f6	0.08481781
19	0x3d33cdb4	0.043897346
20	0x3d71a787	0.058997657
21	0x3de6dde6	0.112727925
22	0xbc45c06d	-0.012069804
23	0x3d07211a	0.032990552
24	0xbda81440	-0.082069874
25	0x3dd69034	0.10476723
26	0xbdbc7e3e	-0.09203766
27	0x3d936385	0.07196716
28	0xbc07fc32	-0.008299874
29	0x3e0097d2	0.12557915
30	0xbdbb4b1a	-0.09145184
31	0xbcdc8cc0	-0.026922584

weight f4 [10, 32]
0	0x3e99ff88	0.30077767
1	0x3e8f4d2d	0.27988568
2	0x3f055098	0.520761
3	0xbe4a357e	-0.19746968
4	0xbdc26c48	-0.09493309
5	0xbe5159f2	-0.20444468
6	0x3d69d593	0.057088446
7	0x3e57ee2d	0.2108695
8	0xbdd87438	-0.10569042
9	0x3e9dc993	0.3081785
10	0x3e1b2e93	0.15154485
11	0xbec6c716	-0.38823766
12	0xbe3f51aa	-0.18683496
13	0x3d5643f4	0.0523109
14	0x3c7803b9	0.015137606
15	0xbe3bbea4	-0.18334442
16	0x3e0717a6	0.13192615
17	0x3c827c25	0.015928337
18	0xbe90c0e2	-0.28272158
19	0xbe2dcc0b	-0.16972367
20	0x3ca1765c	0.019709758
21	0x3eeb4641	0.45952037
22	0xbda3c149	-0.079958506
23	0xbdbd1438	-0.09232372
24	0x3e202801	0.1564026
25	0x3e31324d	0.17304344
26	0x3ec82458	0.39090228
27	0xbebb0bfa	-0.36532575
28	0x3c3b21db	0.011421646
29	0x3e63f780	0.22262383
30	0x3df58614	0.11988464
31	0xbe2f0748	-0.17092621
32	0x3e138ef8	0.14410007
33	0xbe8323f0	-0.25613356
34	0x3e9f15c5	0.31071296
35	0xbe60cfca	-0.21954265
36	0x3e802ae1	0.25032714
37	0xbe94b8ea	-0.29047328
38	0x3eada652	0.33915955
39	0xbca42b23	-0.0200401
40	0xbd4dd8da	-0.050255634
41	0xbea849e6	-0.3286888
42	0xbd5dca32	-0.054147907
43	0x3d85cddd	0.06533406
44	0x3d468038	0.048462123
45	0x3eaa798e	0.33295864
46	0xbdd869de	-0.105670676
47	0xbe371959	-0.17880763
48	0xbcd00541	-0.02539313
49	0xbe337abe	-0.17527291
50	0x3f1917fd	0.5980223
51	0xbd97eb29	-0.074179
52	0xbec640e7	-0.38721392
53	0xbe67838a	-0.22608772
54	0xbd367e7b	-0.044554215
55	0xbe121b71	-0.1426828
56	0x3e5078b3	0.20358543
57	0x3e83dd7a	0.2575491
58	0x3df9cda2	0.121974245
59	0x3ee74143	0.45166978
60	0x3e51abbf	0.20475672
61	0x3cda0ff1	0.02661893
62	0xbcce39bc	-0.025174014
63	0x3eb15983	0.34638605
64	0xbd0b5106	-0.034012817
65	0x3e002950	0.1251576
66	0x3e37deb7	0.17956053
67	0x3ea95054	0.33069098
68	0x3e02d774	0.12777501
69	0x3eb05beb	0.34445128
70	0x3ead125d	0.33803073
71	0xbec7b676	-0.39006394
72	0xbd9aa260	-0.07550502
73	0x3eccd28c	0.40004385
74	0xbf0f754c	-0.56038356
75	0x3d60cbca	0.05488185
76	0xbeadea46	-0.339678
77	0xbd7d5c44	-0.06185557
78	0x3e40f6f9	0.18844213
79	0x3cb9b05e	0.022667106
80	0xbe0bf38d	-0.13667126
81	0xbe15997b	-0.1460933
82	0xbd98d1d4	-0.074618965
83	0x3eb225ba	0.34794408
84	0xbd449a4a	-0.047998704
85	0xbe14ab00	-0.14518356
86	0x3ecfbc89	0.40573528
87	0xbbd68f3c	-0.0065478366
88	0x3e2bc382	0.16773799
89	0x3e06ec1d	0.13176008
90	0xbdb9533e	-0.0904908
91	0xbd4e2917	-0.050332155
92	0x3d61408f	0.05499321
93	0x3de3d8b9	0.11125321
94	0xbe818540	-0.25296974
95	0xbe2b4212	-0.16724423
96	0xbe0d54eb	-0.13801925
97	0x3cc0007a	0.023437727
98	0xbd0f4af2	-0.034983583
99	0x3e7ee411	0.24891688
100	0xbf221c11	-0.63324076
101	0xbddf2462	-0.10895611
102	0x3c2556e7	0.01009152
103	0xbebcd28e	-0.3687939
104	0xbcf8382d	-0.030300224
105	0x3d2fadf2	0.042890497
106	0xbd0321f7	-0.032014813
107	0xbddf78c6	-0.109117076
108	0xbdbee212	-0.09320463
109	0x3dd0c8c3	0.10194542
110	0x3dc1d51a	0.09464474
111	0xbdf98dcc	-0.12185249
112	0xbe1672fe	-0.14692304
113	0x3dbb876a	0.091566876
114	0xbe98743d	-0.29776183
115	0x3de2ac32	0.11068
116	0xbe870dd6	-0.26377743
117	0xbda8565b	-0.08219596
118	0x3e067372	0.13129976
119	0xbe11eabb	-0.14249699
120	0x3d47d29b	0.048784833
121	0xbdb3b719	-0.087751575
122	0xbd36c305	-0.04461958
123	0x3e4dd149	0.20099367
124	0xbe1b0e38	-0.15142143
125	0x38578852	5.1386953e-05
126	0xbdb8a8e8	-0.09016591
127	0xbdbb439d	-0.091437556
128	0xbd80791f	-0.06273102
129	0xbe23c8ad	-0.1599452
130	0x3dfb052b	0.12256845
131	0x3e01fed2	0.12694862
132	0xbd8c1a17	-0.06840914
133	0xbda09140	-0.07840204
134	0x3df37a23	0.1188853
135	0xbdb1594c	-0.0865961
136	0xbeb27253	-0.34852847
137	0x3d53e91d	0.051735986
138	0x3e959e27	0.29222223
139	0xbe1d1dfe	-0.15343472
140	0x3efe2401	0.49636844
141	0xbb140527	-0.002258608
142	0xbe541b90	-0.2071364
143	0xbd8ff15b	-0.07028457
144	0x3e66f08e	0.22552702
145	0xbebe5cb3	-0.371801
146	0xbd4ef86c	-0.050529882
147	0xbeb144f8	-0.3462293
148	0x3e7e001f	0.24804734
149	0x3e33c0f6	0.17554078
150	0xbce9e652	-0.028552208
151	0xbeb10abe	-0.34578508
152	0xbd97f124	-0.07419041
153	0x3dc61d1e	0.096735224
154	0xbe687f0a	-0.22704712
155	0x3dc6f650	0.09714949
156	0x3d229294	0.03969057
157	0xbdc98b71	-0.098410495
158	0x3e4838d6	0.19552931
159	0xbbb1ee00	-0.005429983
160	0xbe249adc	-0.16074699
161	0xbe8a8304	-0.27053082
162	0xbd67dd0b	-0.056607287
163	0x3dcfb767	0.10142403
164	0x3cb9bc0b	0.022672674
165	0x3e66c86e	0.22537395
166	0x3e806868	0.25079656
167	0xbe3e65e3	-0.18593554
168	0x3da9e58c	0.08295736
169	0xbb3c8376	-0.002876488
170	0x3d42bded	0.04754441
171	0xbea6cb05	-0.32576767
172	0xbc2dc7ff	-0.010606765
173	0x3d8d5079	0.069001146
174	0x3d55d98f	0.052209433
175	0xbb2543a8	-0.0025217328
176	0x3eee1e04	0.46507275
177	0xbe21f88e	-0.15817472
178	0x3e471fc0	0.19445705
179	0xbe8e93cb	-0.27847132
180	0xbcd82221	-0.026383461
181	0xbea0c652	-0.31401306
182	0xbd4b34d5	-0.04961093
183	0xbdd9cc21	-0.106346376
184	0xbe53eb70	-0.20695281
185	0x3ebb84e5	0.36624828
186	0xbe01aa46	-0.1266261
187	0xbeaf04f9	-0.3418348
188	0xbe0093cb	-0.12556379
189	0xbdab8d11	-0.08376516
190	0xbd81c2a7	-0.06335955
191	0x3dcba628	0.09943801
192	0x3d8cf76a	0.06883128
193	0x3da7a990	0.08186638
194	0xbe5fd48d	-0.21858425
195	0x3ef43d76	0.4770314
196	0xbd3ec519	-0.046574686
197	0xbe402f8e	-0.1876814
198	0x3e4f7c8f	0.20262359
199	0xbd4ec800	-0.050483704
200	0x3e0ec2b2	0.13941458
201	0xbd07c467	-0.03314629
202	0x3d2649d7	0.040597763
203	0x3f022667	0.5083985
204	0x3dff128b	0.12454709
205	0x3dc1ec11	0.09468854
206	0x3e1f3075	0.15545829
207	0xbf1b92c8	-0.60770845
208	0xbe7063dd	-0.23475595
209	0x3e044548	0.12917054
210	0xbe2d8a25	-0.16947229
211	0x3d171697	0.036886778
212	0xbcf41ad5	-0.02979795
213	0xbe051db4	-0.12999612
214	0xbf04b5e0	-0.5184002
215	0xbef13bbe	-0.47115892
216	0x3c64e316	0.013970157
217	0xbe46c76c	-0.19412011
218	0x3e870648	0.2637198
219	0x3d363f1a	0.044493772
220	0xbe841a03	-0.25801095
221	0x3e13f669	0.14449467
222	0x3e1fe1ab	0.15613429
223	0xbd4dadb4	-0.050214484
224	0x3e0d42fe	0.13795087
225	0x3e3812c2	0.17975906
226	0xbe9e6f17	-0.3094413
227	0xbe0915f0	-0.13387275
228	0x3c86fcf9	0.016478049
229	0x3e11be7d	0.14232822
230	0xbdb21c5e	-0.08696817
231	0x3d5d25c2	0.053991087
232	0xbda5227e	-0.080632195
233	0xbedf3d99	-0.43601683
234	0xbdf58f14	-0.119901806
235	0xbda43c9c	-0.08019373
236	0xbe040bf3	-0.12895183
237	0xbcdd54bc	-0.027017944
238	0x3c48770c	0.012235414
239	0x3edc7ae8	0.4306252
240	0xbe6d6fe5	-0.23187216
241	0xbe09ad63	-0.13445048
242	0x3e364283	0.1779881
243	0xbe95f08d	-0.29285088
244	0x3ceac083	0.02865625
245	0xbe2af4ae	-0.166949
246	0xbec1f7a3	-0.37884244
247	0x3dfd9d09	0.12383468
248	0xbdaa4f31	-0.08315886
249	0x3e909aee	0.28243202
250	0xbc97b616	-0.018519443
251	0xbd410dfa	-0.04713247
252	0xbe1c16b4	-0.15243036
253	0x3d73b3ee	0.059497766
254	0xbe0fd17c	-0.14044756
255	0x3b6fa1dd	0.0036564984

bias f4 [10]
0	0x3e144cc1	0.14482404
1	0xbe2a55b6	-0.16634259
2	0x3e66cd82	0.22539333
3	0xbe1ce653	-0.15322237
4	0xbe0f024b	-0.13965718
5	0xbc3c4fac	-0.011493605
6	0x3de1377e	0.109969124
7	0x3d92fff0	0.071777225
8	0xbcec8109	-0.028870123
9	0x3d2a609b	0.041596036

weight f4 [64, 784]
0	0xbd5faf2b	-0.054610413
1	0xbbdf2e20	-0.0068109185
2	0xbd0174d6	-0.031605564
3	0x3d911d90	0.07085717
4	0x3d466225	0.04843344
5	0xbd8b783d	-0.06810043
6	0x3a2df239	0.000663552
7	0xbb028485	-0.0019915414
8	0xbceefc0b	-0.029172918
9	0xbce4aa52	-0.027913246
10	0x3c62e3b5	0.013848235
11	0x3d7271af	0.05919045
12	0xbd296b6b	-0.041362207
13	0xbc9b9fb1	-0.018997045
14	0x3d41608c	0.047211215
15	0xbd0c1098	-0.034195513
16	0x3ddc6a01	0.10762406
17	0xbd21e379	-0.039523575
18	0xbd1a7db4	-0.037717536
19	0xbc55a703	-0.013040307
20	0x3d2d784c	0.042351052
21	0xbc1a7243	-0.009426656
22	0xbd563c53	-0.052303623
23	0x3cd19490	0.025583535
24	0xbd09ea3c	-0.03367065
25	0x3cd9502d	0.026527489
26	0x3d112b64	0.03544177
27	0x3c89b650	0.016810566
28	0x3d136882	0.03598834
29	0x3db2842f	0.08716618
30	0xbd667a5d	-0.05626904
31	0xbcc358b2	-0.023846004
32	0x3cb991ed	0.02265259
33	0xbc00b08b	-0.007854591
34	0x3db662a0	0.0890553
35	0x3cd75fcb	0.026290795
36	0x3bc83378	0.006109651
37	0x3c2f03d7	0.010682068
38	0x3cac83b8	0.021058902
39	0x3d361a4b	0.04445867
40	0x3d3b848c	0.045780703
41	0xbd3f508d	-0.04670768
42	0xbcf39fe0	-0.02973932
43	0xbdc3e4f8	-0.09565157
44	0x3c77851b	0.015107418
45	0x3c448d25	0.011996542
46	0xbd47693a	-0.048684336
47	0x3d8afbf7	0.0678634
48	0xbc4ecb68	-0.012621738
49	0xbdb3c001	-0.08776856
50	0xb80b4205	-3.3201668e-05
51	0x3caf0eb2	0.021369312
52	0xbd480513	-0.048832964
53	0xbd3e1f12	-0.04641635
54	0xbc929085	-0.017891178
55	0xbd2806ed	-0.04102223
56	0x3d91b43f	0.07114457
57	0x3b052d40	0.002032116
58	0xbd2f5527	-0.042805817
59	0xbd779b2a	-0.06045071
60	0xbd4796fa	-0.048727967
61	0xbd1c901c	-0.03822337
62	0xbd1fcb44	-0.03901221
63	0x3ca880c4	0.020569213
64	0x3c82c78f	0.015964298
65	0xbcebb997	-0.02877502
66	0x3b4b7a5c	0.0031048274
67	0xb9990fdd	-0.00029194253
68	0x3c089a4f	0.008337571
69	0x3d4d6bb2	0.050151534
70	0x3bc82ac2	0.0061086128
71	0x3c57a3fa	0.013161654
72	0x3d1975f1	0.037465993
73	0x3c0a793e	0.008451758
74	0x3d0c27c7	0.034217622
75	0x3d4d6f05	0.050154705
76	0x3d2e5b4d	0.04256754
77	0x3d3a731c	0.045519933
78	0x3c657e77	0.014007202
79	0x3c40f768	0.011777736
80	0xbd99edd4	-0.07516065
81	0xbd64120b	-0.05568127
82	0x3c5dba9d	0.013533262
83	0x3d00e9a8	0.031472832
84	0xbc9d67e3	-0.019214576
85	0xbd16d2a3	-0.036821973
86	0xbb214fdc	-0.002461425
87	0x3d550c4f	0.05201369
88	0x3c4b8e7c	0.012424108
89	0xb9deaf93	-0.00042473953
90	0x3be4efb1	0.0069865813
91	0x3d8ae768	0.067824185
92	0x3bf125d0	0.007359244
93	0x3cd98c79	0.02655624
94	0xbd2f974a	-0.04286889
95	0xbdb0b17b	-0.08627602
96	0x3d161005	0.03663637
97	0xbc7d8464	-0.015473459
98	0x3b8aad28	0.0042320676
99	0xbc1729cf	-0.009226277
100	0xbc0f138c	-0.008732688
101	0x3d6a3d1a	0.057187177
102	0xbd0248bb	-0.031807642
103	0xbc81d6f4	-0.015849568
104	0x3dc568d7	0.09639137
105	0xbbe0a1b8	-0.006855216
106	0xbc9e58d9	-0.019329475
107	0xbd19dccf	-0.037564095
108	0x3d6c9a37	0.05776426
109	0x3cc2ff24	0.023803301
110	0xbb3425a6	-0.002748826
111	0xbbc91cdf	-0.006137475
112	0xbcafd88a	-0.021465559
113	0xbd89ab5c	-0.06722137
114	0x3d173656	0.036917053
115	0xbd1a8acc	-0.037730023
116	0x3b973e77	0.0046156007
117	0x3d892824	0.06697109
118	0xbd4dec78	-0.050274342
119	0xbbd2e31b	-0.0064357645
120	0xbdb92c27	-0.090416245
121	0xbd08ef7b	-0.03343151
122	0xbd51f68f	-0.051260527
123	0x3c2d5208	0.01057864
124	0x3bc15d9e	0.0059010526
125	0xbd83853b	-0.06421896
126	0xbc0894e1	-0.008336277
127	0x3d6756d5	0.056479294
128	0x3d0cece8	0.03440562
129	0xbb8534f4	-0.0040651504
130	0xbc4d271b	-0.0125215305
131	0x3c2fb7ae	0.010724945
132	0xbd1fea50	-0.039041817
133	0xbd11896f	-0.035531458
134	0x3d1d37e3	0.038383376
135	0x3d257b6d	0.04040091
136	0x3c1cf7ef	0.009580596
137	0xbd8790df	-0.06619429
138	0x3ca59bda	0.020215917
139	0x3bb58070	0.0055389926
140	0x3c124e7b	0.008929844
141	0x3c8222e6	0.015885781
142	0xbb84e4f2	-0.0040556127
143	0xbd45025e	-0.04809796
144	0xbdbb0e53	-0.091335915
145	0x3d462635	0.04837628
146	0x3d00f79f	0.03148615
147	0xbde176f3	-0.11009016
148	0xbc9d117c	-0.019173376
149	0xbd6ede0e	-0.058317237
150	0xbcfd438e	-0.030916002
151	0x3c4b0ebb	0.012393649
152	0x3d59315c	0.05302559
153	0x3ddbb438	0.107277334
154	0x3d1bfe92	0.038084574
155	0xbc29bc47	-0.01035983
156	0xbce30385	-0.02771164
157	0xbbb93125	-0.0056516104
158	0x3d96e789	0.073683806
159	0xbd1ac6d8	-0.03778729
160	0x3b91b2a5	0.004446345
161	0xba316b89	-0.0006768038
162	0x3df0b09f	0.11752438
163	0xbd30d078	-0.04316756
164	0xbce3011a	-0.027710486
165	0x3b9508b7	0.004548158
166	0x3c08bd71	0.008345948
167	0xbca60f4f	-0.020270972
168	0xbd95d7df	-0.07316565
169	0x3cf009dc	0.029301576
170	0xbbe48186	-0.006973448
171	0xbe0098dc	-0.12558311
172	0xbd3b15d5	-0.045675118
173	0x3d6d6514	0.057957724
174	0x3d19ae3d	0.037519682
175	0xbd47ae31	-0.048750106
176	0x3cb291fc	0.021798126
177	0x3cdd4592	0.027010713
178	0xbcbfe2a6	-0.023423504
179	0x3d15d0f5	0.03657623
180	0x3d0d1e9e	0.034453027
181	0xbc6cf663	-0.01446304
182	0xbc96a286	-0.018388044
183	0xbd061015	-0.03273018
184	0x3cfc9c4d	0.030836249
185	0xbd236ab2	-0.039896674
186	0xbd71e5b6	-0.05905696
187	0x3d27aace	0.040934376
188	0xbdc73788	-0.097273886
189	0x3c81df5a	0.015853573
190	0x3c4fb0bf	0.012676417
191	0xbc936a16	-0.017994922
192	0xbc9236cc	-0.017848395
193	0xbd651fdf	-0.055938598
194	0x3d042d08	0.032269508
195	0x3c9e97eb	0.01935955
196	0xbd12b84c	-0.03582029
197	0x3e08ea12	0.1337054
198	0xbce59089	-0.028023021
199	0xbdd2e0c0	-0.10296774
200	0xbd2269b8	-0.039651603
201	0x3bdf6be6	0.0068182824
202	0xbd04a6e4	-0.03238572
203	0x3d15b510	0.036549628
204	0x3da68db5	0.08132497
205	0xbcdd0eef	-0.02698466
206	0x3cbaca61	0.02280158
207	0x3d0d7cef	0.034542974
208	0x3aaa61b8	0.0012999093
209	0xbc5254df	-0.012837618
210	0x3dc2dfb7	0.095153265
211	0xbcc801f3	-0.024414992
212	0x3c000090	0.007812634
213	0x3dbcb5aa	0.09214337
214	0x3da1ead3	0.07906117
215	0x3d943a43	0.07237675
216	0x3d80eb86	0.062949225
217	0xbc90c483	-0.01767183
218	0xbd383d92	-0.044980593
219	0xbd0079a1	-0.031365994
220	0x3cc3f10c	0.023918651
221	0x3d0d6b66	0.03452625
222	0x3cba46b5	0.022738794
223	0xbd838229	-0.064213105
224	0xbb4bf88c	-0.0031123487
225	0x3c97217a	0.01844858
226	0xbdbbd567	-0.09171563
227	0xbcb969d6	-0.022633474
228	0xbcb5f753	-0.02221266
229	0x3c512939	0.012766176
230	0x3cc12710	0.023578197
231	0xbc7186fe	-0.014741657
232	0x3c18ac28	0.009318389
233	0xbc93194f	-0.017956404
234	0xbd6728c4	-0.05643536
235	0xbd622472	-0.05521054
236	0xbccf440f	-0.025301008
237	0xbcad6527	-0.021166397
238	0xbc7c56e3	-0.015401575
239	0xbccfbd7d	-0.02535891
240	0xbcc40611	-0.023928674
241	0xbd5c1986	-0.05373528
242	0xbd974e21	-0.07387949
243	0x3c928446	0.017885339
244	0xbc2c7f38	-0.010528378
245	0xbc361164	-0.011112545
246	0xbccfbf78	-0.025359854
247	0xbda09564	-0.07840994
248	0x3c85714a	0.016289372
249	0xbd68ca25	-0.056833405
250	0xbb813a1a	-0.003943694
251	0x3b890cb0	0.0041824207
252	0x3c9ba6e5	0.01900048
253	0xbcb8b873	-0.02254889
254	0xbd2dff61	-0.042479876
255	0xbc9a5863	-0.018840974

bias f4 [64]
0	0x3cb8fcf9	0.022581564
1	0xba664a7c	-0.0008784903
2	0xbd052f3f	-0.03251576
3	0xbc5e7c0c	-0.01357938
4	0x3cf73876	0.03017829
5	0x3b825b3e	0.003978162
6	0x3c1de96a	0.00963817
7	0xbbe9436b	-0.0071186326
8	0xbbe7a0cc	-0.007068729
9	0x3d10b096	0.035324655
10	0x3cfd5291	0.03092316
11	0x3c4c0200	0.012451649
12	0xb9be0b3b	-0.0003624799
13	0x3c9ab719	0.018886136
14	0xbd17f519	-0.037098978
15	0x3c1d2f23	0.009593758
16	0x3cbc168f	0.022959976
17	0xbb8a90b5	-0.004228676
18	0xbb7afd99	-0.0038298129
19	0x3cc877c7	0.024471177
20	0x3c3827ba	0.01123994
21	0x3c845b28	0.016156748
22	0xbc66b40f	-0.014081015
23	0xbc202aa9	-0.009775796
24	0xbc093ef1	-0.008376823
25	0xbc3391f0	-0.010960087
26	0x3d041ce3	0.03225411
27	0x3c9bcb54	0.019017853
28	0x3ca61517	0.020273728
29	0xbcbdf022	-0.023185793
30	0x3cf79f1d	0.030227238
31	0x3c1dab50	0.009623364
32	0x3c667134	0.014065076
33	0x3c9602ec	0.01831194
34	0x3c903015	0.017601052
35	0x3d21a797	0.039466467
36	0x3bde2528	0.0067793317
37	0xbc01b989	-0.00791777
38	0x3c84b8a2	0.016201321
39	0x3c4e0c7e	0.012576221
40	0xbc9d6783	-0.019214397
41	0xbc44a3ac	-0.012001913
42	0xbcaf4fb0	-0.021400303
43	0x3cdc5b04	0.026898868
44	0x3cb774f9	0.022394644
45	0xbce91d41	-0.028456332
46	0xbba92438	-0.0051617883
47	0x3b2d4909	0.0026441237
48	0xbb2a5d69	-0.0025995618
49	0xbd08f451	-0.033436123
50	0xbc9a303f	-0.018821834
51	0xbcb84456	-0.022493523
52	0x3c138bc3	0.00900549
53	0x3b357da4	0.0027693296
54	0xbc48e6bc	-0.012262043
55	0xbc82953c	-0.015940301
56	0x3c87a456	0.016557854
57	0xbc0dfe55	-0.0086665945
58	0xbcb9d44d	-0.02268424
59	0x3cdd53e3	0.02701754
60	0x3bf8443d	0.007576494
61	0x3c92e6b2	0.01793227
62	0xbc6b15fb	-0.014348502
63	0xbc8688cd	-0.016422654

weight f4 [32, 64]
0	0xbdfbce30	-0.122951865
1	0xbdd59772	-0.104292765
2	0xbd14a2f2	-0.03628821
3	0xbe0f6e6f	-0.14006971
4	0xbdd95b45	-0.106131114
5	0xbd669af6	-0.056300126
6	0xbe42d648	-0.19027054
7	0x3d77decd	0.060515214
8	0x3cf12646	0.029437196
9	0xbe6c72f9	-0.23090734
10	0x3d4c423b	0.04986785
11	0xbe1df6c9	-0.15426172
12	0xbb221771	-0.002473321
13	0x3c93238c	0.017961286
14	0xbdb2fd4d	-0.087397195
15	0x3d8bef9d	0.06832812
16	0x3e32d50c	0.17464083
17	0x3dff92e5	0.1247919
18	0x3e5a2e73	0.21306781
19	0xbcea0cdb	-0.028570583
20	0xbd89187c	-0.06694123
21	0x3d5ad079	0.05342147
22	0x3e14801b	0.14501993
23	0xbe831f08	-0.25609612
24	0xbbe1295e	-0.0068713864
25	0xbe1b9ec0	-0.15197277
26	0x3d0a984d	0.03383665
27	0xbd30e7e5	-0.0431899
28	0x3e1e43f7	0.15455614
29	0xbd6d4f5f	-0.057937022
30	0xbe01c119	-0.12671317
31	0xbcd6540c	-0.026163124
32	0x3c317d4b	0.010833095
33	0x3ed18151	0.40918973
34	0x3e5f9b85	0.2183667
35	0x3e050d55	0.12993367
36	0x3d95aaf9	0.07308001
37	0xbd7314e5	-0.0593461
38	0x3e1cb9b1	0.1530521
39	0xbe226480	-0.1585865
40	0x3ef7e61e	0.48417753
41	0xbdf0cdb9	-0.117579885
42	0x3e45f649	0.19332232
43	0x3e84ce69	0.25938728
44	0xbccf24ca	-0.025286097
45	0x3c059306	0.008152729
46	0xbd095f32	-0.03353805
47	0x3bdc9cba	0.0067325504
48	0xbe28b2ba	-0.16474429
49	0x3dbad5d8	0.09122819
50	0xbd931d74	-0.07183352
51	0xbc0e1764	-0.008672569
52	0x3e8a2bea	0.2698663
53	0x3e15aaa3	0.14615874
54	0x3e057d11	0.1303599
55	0x3e156e08	0.14592755
56	0xbdaa63d4	-0.08319822
57	0xbe40e973	-0.18839054
58	0x3d91a441	0.07111407
59	0x3ebb159c	0.36539924
60	0xbdc69eb4	-0.09698239
61	0x3df01666	0.11723022
62	0xbd6e535b	-0.058184963
63	0xbe4bc205	-0.19898231
64	0xbe804e88	-0.25059915
65	0x3db4a00f	0.08819591
66	0x3e1f530b	0.15559022
67	0x3d684d3d	0.056714285
68	0x3d47dab9	0.048792575
69	0x3d4fc822	0.05072797
70	0x3dd17b99	0.102286525
71	0xbe40559b	-0.18782656
72	0xbd5a3839	-0.053276274
73	0x3d6f8634	0.058477595
74	0x3e159bf7	0.14610277
75	0x3cc9eea2	0.024649922
76	0xbe27880b	-0.1636049
77	0x3df4b845	0.11949209
78	0xbe2e3640	-0.17012882
79	0x3df12b76	0.11775868
80	0x3db471ad	0.088107444
81	0xbd8b72f4	-0.06809035
82	0x3e5021ae	0.20325348
83	0x3b0f6b37	0.0021883973
84	0x3dbb91cc	0.09158668
85	0x3ea5196b	0.32245955
86	0xbe5483fc	-0.20753473
87	0x3e7a1320	0.24421358
88	0x3e0d2348	0.1378299
89	0xbebb10bc	-0.36536205
90	0x3d6c2cda	0.05765996
91	0x3e451098	0.19244611
92	0xbc874445	-0.016512046
93	0x3d525fdc	0.05136095
94	0x3d7ac3ee	0.06122201
95	0x3d992739	0.07478184
96	0x3d0027ce	0.03128796
97	0x3e1695d3	0.14705591
98	0x3a4e479c	0.0007868947
99	0x3e60e654	0.21962863
100	0xbd5563d4	-0.052097157
101	0xbd3d3972	-0.046197362
102	0x3aea3430	0.0017868336
103	0xbce824ea	-0.028337914
104	0x3e569f72	0.20959261
105	0xbdeae5a2	-0.1146958
106	0x3c7fe550	0.015618637
107	0x3dd5abd6	0.10433166
108	0x3dddc918	0.10829371
109	0xbcb99c8e	-0.022657659
110	0xbd28175f	-0.041037913
111	0x3d58f1f7	0.05296513
112	0xbdb16956	-0.08662669
113	0xbcd3fdbb	-0.025877824
114	0x3c1e75fb	0.009671683
115	0x3e39a2de	0.18128535
116	0xbdc9dff9	-0.098571725
117	0xbd36a558	-0.044591278
118	0x3e1073dc	0.14106697
119	0x3d4c0ea0	0.049818635
120	0x3dc0df6e	0.09417616
121	0x3d18fb47	0.03734901
122	0x3daabcc1	0.08336783
123	0xbc25db10	-0.010123029
124	0xbc24fac3	-0.010069552
125	0xbdaec9f6	-0.08534615
126	0xbe719334	-0.2359131
127	0x3d81f360	0.06345248
128	0x3d1b6e42	0.037946947
129	0xbe8b5b09	-0.27217892
130	0xbe5a8cc5	-0.21342762
131	0xbd56b0c3	-0.052414667
132	0xbd1f6ed1	-0.038924042
133	0x3cd88a0b	0.026433012
134	0xbd9f0efb	-0.07766529
135	0xbc161511	-0.009160296
136	0x3c61a141	0.013771356
137	0x3e771d00	0.24132156
138	0xbdbcbd2e	-0.09215771
139	0x3e56c484	0.20973402
140	0x3dac0177	0.08398717
141	0xbca24b91	-0.019811423
142	0xbddeed7e	-0.10885142
143	0x3e5ec419	0.21754493
144	0x3de5c243	0.11218693
145	0x3cde349e	0.0271247
146	0xbda8d23a	-0.082432225
147	0xbdb1a79b	-0.08674546
148	0x3dc9996a	0.098437145
149	0x3e6a03b3	0.22852974
150	0x3c88e280	0.016709566
151	0x3dcb4c38	0.09926647
152	0x3e20639c	0.15662998
153	0xbc8c83b0	-0.017152637
154	0x3e2835e0	0.16426802
155	0x3d493c96	0.049130045
156	0x3e582761	0.21108772
157	0xbd477708	-0.0486975
158	0xbe4d66bd	-0.20058723
159	0x3cc4ac5c	0.024007969
160	0x3ea8ded5	0.32982507
161	0x3dae2d57	0.08504742
162	0xbe0bb9aa	-0.13645044
163	0xbcad7aef	-0.021176783
164	0xbe3fd681	-0.1873417
165	0xbe445862	-0.1917434
166	0x3d97d162	0.074129835
167	0x3d69f591	0.057118956
168	0xbe6b3306	-0.22968683
169	0xbe1e6647	-0.15468703
170	0xbe8b3543	-0.27189073
171	0xbe4512c8	-0.19245446
172	0x3e2fff98	0.17187345
173	0x3df9167e	0.12162493
174	0xbd84762b	-0.06467851
175	0x3d9ce72b	0.07661279
176	0x3d8f5d8b	0.07000264
177	0xbe09fb80	-0.13474846
178	0xbcfa4667	-0.030551149
179	0x3d5af3fc	0.053455338
180	0x3d6318dd	0.055443633
181	0x3d883465	0.066506185
182	0x3dfbe3f2	0.122993365
183	0x3cce3faa	0.025176842
184	0xbdf3eb1d	-0.11910079
185	0x3c601062	0.013675781
186	0x3ea5facb	0.32417902
187	0x3eaeece9	0.34165123
188	0xbc657e6d	-0.014007193
189	0x3e5be89a	0.21475449
190	0x3ddfd040	0.109283924
191	0x3c407cd5	0.011748512
192	0x3e835f11	0.25658467
193	0x3d47aa16	0.04874619
194	0xbdbcd04a	-0.092194155
195	0x3e0f49e2	0.13993028
196	0xbca5d155	-0.020241419
197	0xbc04bc65	-0.008101557
198	0xbe040412	-0.12892178
199	0xbdfb242e	-0.1226276
200	0xbdeebc42	-0.11657001
201	0xbe315580	-0.17317772
202	0xbe914f89	-0.28380993
203	0xbc9c2ab8	-0.019063339
204	0xbc8ab2d9	-0.016930984
205	0x3e0a64b4	0.13514978
206	0x3c95e41c	0.018297248
207	0x3b04505a	0.0020189495
208	0xbe0f7130	-0.14008021
209	0x3e7e6b27	0.24845563
210	0x3e57a481	0.21058847
211	0xbe07ce87	-0.13262378
212	0x3e8be1f5	0.2732083
213	0xbd2831d8	-0.04106316
214	0x3e7d6520	0.24745607
215	0xbdb78d1f	-0.089624636
216	0x3e687710	0.22701669
217	0x3e0abcf8	0.13548648
218	0x3d739f51	0.059478108
219	0x3e9aa7ec	0.3020624
220	0x3dfda9fd	0.12385938
221	0x3d688c59	0.05677447
222	0xbd80bfb3	-0.06286564
223	0x3e212a90	0.15738893
224	0x3c6da336	0.014504245
225	0xbcacdf23	-0.021102494
226	0xbe9e2855	-0.30890146
227	0x3d8d4e30	0.06899679
228	0xbd8a39be	-0.06749295
229	0x3de2dba2	0.11077048
230	0x3d86ddce	0.06585275
231	0xbce6998d	-0.02814939
232	0xbdffcb6f	-0.12489974
233	0x3db2a892	0.087235585
234	0xbb1854fe	-0.0023244019
235	0xbe1c79c3	-0.15280823
236	0xbcdeeefd	-0.027213568
237	0xbb1f8803	-0.0024342544
238	0xbd2c1b2c	-0.0420181
239	0x3e0d99c8	0.13828194
240	0x3e8afbd6	0.2714526
241	0xbe49b141	-0.19696523
242	0x3c76eed5	0.01507159
243	0x3d5edef5	0.054411847
244	0x3d0524cb	0.03250579
245	0x3c31c250	0.01084955
246	0xbe3e62fe	-0.1859245
247	0x3da11d7d	0.078669526
248	0x3e4bc52f	0.19899438
249	0xbd30aee0	-0.043135524
250	0xbdd185d9	-0.102306075
251	0x3e4282e9	0.18995251
252	0x3d93b991	0.07213128
253	0x3d5d4561	0.054021243
254	0xbd0d3176	-0.034470998
255	0x3bbc011c	0.005737437

bias f4 [32]
0	0x3d9952bb	0.07486483
1	0xbd69183f	-0.05690789
2	0x3d220046	0.039551042
3	0xbd8e1e56	-0.0693938
4	0x3a457b69	0.0007533343
5	0xbc574d28	-0.013140954
6	0x3de0c11a	0.10974331
7	0x3cd533b0	0.026025623
8	0x3d06ad90	0.032880366
9	0x3e00397d	0.1252193
10	0xbe00f36c	-0.12592858
11	0x3d4dd40b	0.050251048
12	0xbdce37c7	-0.100692324
13	0xbd002ce9	-0.03129283
14	0x3dca1e38	0.09869045
15	0x3da038a1	0.07823301
16	0x3de58881	0.11207677
17	0xbd14bf69	-0.036315355
18	0x3dadaa3b	0.084797345
19	0x3d343bd2	0.04400236
20	0x3d719eb8	0.058989257
21	0x3de6d1cb	0.112704836
22	0xbc4393d2	-0.011937099
23	0x3d073cac	0.033016846
24	0xbda80eb6	-0.08205931
25	0x3dd694fa	0.10477634
26	0xbdbc8f8c	-0.09207067
27	0x3d93729c	0.071995944
28	0xbc07bda6	-0.008284962
29	0x3e009c45	0.12559612
30	0xbdbb5365	-0.091467656
31	0xbcdca714	-0.026935138

weight f4 [10, 32]
0	0x3e9a173e	0.30095857
1	0x3e8f9e6d	0.28050557
2	0x3f05616c	0.5210178
3	0xbe4aa258	-0.19788492
4	0xbdc2abe8	-0.09505445
5	0xbe516c1e	-0.204514
6	0x3d68edbc	0.056867346
7	0x3e58a02d	0.21154852
8	0xbdd89bde	-0.10576604
9	0x3e9df281	0.30849078
10	0x3e1b4fc5	0.15167148
11	0xbec6e971	-0.38849977
12	0xbe3f4e09	-0.18682112
13	0x3d57d7b0	0.05269593
14	0x3c781391	0.015141384
15	0xbe3bf378	-0.18354595
16	0x3e07140e	0.13191244
17	0x3c83a058	0.016067669
18	0xbe90b9bb	-0.282667
19	0xbe2e3d45	-0.1701556
20	0x3ca10034	0.019653417
21	0x3eeb9afe	0.46016687
22	0xbda452df	-0.08023619
23	0xbdbd2dda	-0.09237261
24	0x3e202d94	0.15642387
25	0x3e3123cc	0.17298812
26	0x3ec81c8f	0.39084288
27	0xbebb2de2	-0.36558443
28	0x3c390a7a	0.011294002
29	0x3e642de4	0.22283131
30	0x3df5751c	0.119852275
31	0xbe2ef81c	-0.17086834
32	0x3e1383c9	0.14405741
33	0xbe832849	-0.25616673
34	0x3e9f044b	0.31057963
35	0xbe60d8b9	-0.21957673
36	0x3e80244f	0.250277
37	0xbe94bd28	-0.29050565
38	0x3ead9c1e	0.3390817
39	0xbca47295	-0.020074168
40	0xbd4de57f	-0.050267693
41	0xbea851e0	-0.32874966
42	0xbd5dcc2f	-0.054149803
43	0x3d85b96d	0.06529508
44	0x3d467a69	0.048456583
45	0x3eaa731e	0.33290952
46	0xbdd87101	-0.10568429
47	0xbe371af5	-0.17881377
48	0xbcd000ea	-0.02539106
49	0xbe337f83	-0.1752911
50	0x3f1914f1	0.5979758
51	0xbd980f04	-0.07424739
52	0xbec63ddb	-0.38719067
53	0xbe67886a	-0.22610632
54	0xbd36da4d	-0.04464178
55	0xbe121d10	-0.14268899
56	0x3e507421	0.203568
57	0x3e83d75f	0.25750253
58	0x3df9c603	0.12195971
59	0x3ee738ea	0.4516061
60	0x3e519d0d	0.20470066
61	0x3cd9fa2a	0.026608545
62	0xbcce3ac3	-0.025174504
63	0x3eb154f1	0.34635118
64	0xbd0b89eb	-0.034067076
65	0x3dffa167	0.12481957
66	0x3e381e34	0.17980272
67	0x3ea9ab37	0.3313844
68	0x3e0316e8	0.12801707
69	0x3eb08bd4	0.3448168
70	0x3ead4640	0.3384266
71	0xbec7f279	-0.3905218
72	0xbd9a4fce	-0.07534753
73	0x3ecce73b	0.40020165
74	0xbf0f7912	-0.56044114
75	0x3d62b580	0.055348873
76	0xbeade5a6	-0.3396427
77	0xbd7e73e4	-0.06212224
78	0x3e410b93	0.18852071
79	0x3cbc5056	0.022987526
80	0xbe0befbc	-0.1366567
81	0xbe1587af	-0.1460254
82	0xbd98dd6d	-0.074641086
83	0x3eb28e27	0.3487408
84	0xbd44293c	-0.047890887
85	0xbe151d40	-0.14561939
86	0x3ed01d58	0.40647388
87	0xbbd13bb1	-0.0063852896
88	0x3e2bba53	0.16770296
89	0x3e0714c9	0.13191523
90	0xbdb9390e	-0.090440854
91	0xbd4c69e1	-0.04990566
92	0x3d62950d	0.055317927
93	0x3de37aec	0.1110743
94	0xbe817de2	-0.25291353
95	0xbe2b46ac	-0.16726178
96	0xbe0d5b45	-0.13804348
97	0x3cbf454f	0.023348479
98	0xbd0fe95b	-0.035134654
99	0x3e7ec3ad	0.24879332
100	0xbf221a8b	-0.6332175
101	0xbddf5570	-0.10904968
102	0x3c2469d2	0.010034995
103	0xbebcd42f	-0.36880633
104	0xbcf85ace	-0.030316737
105	0x3d2f0dc5	0.04273774
106	0xbd032764	-0.032019988
107	0xbddf92b7	-0.109166555
108	0xbdbedf06	-0.09319882
109	0x3dd0b741	0.10191203
110	0x3dc1c473	0.09461298
111	0xbdf99891	-0.12187303
112	0xbe166ff2	-0.14691141
113	0x3dbb6022	0.09149195
114	0xbe987131	-0.29773858
115	0x3de2682d	0.11055026
116	0xbe870db3	-0.2637764
117	0xbda870dc	-0.08224651
118	0x3e064756	0.1311315
119	0xbe11f135	-0.1425217
120	0x3d47cc14	0.04877861
121	0xbdb3c304	-0.08777431
122	0xbd36c25a	-0.04461894
123	0x3e4dbf17	0.20092426
124	0xbe1b1738	-0.15145576
125	0x382952fa	4.0370018e-05
126	0xbdb8a73c	-0.090162724
127	0xbdbb41fc	-0.09143445
128	0xbd808130	-0.062746406
129	0xbe23d23d	-0.15998168
130	0x3dfad6f2	0.12248029
131	0x3e01f3d4	0.1269067
132	0xbd8c1fd3	-0.068420075
133	0xbda0a166	-0.07843284
134	0x3df369cc	0.118854135
135	0xbdb169d7	-0.086627655
136	0xbeb26f47	-0.34850523
137	0x3d538d67	0.051648524
138	0x3e959ab3	0.2921959
139	0xbe1d1fde	-0.15344188
140	0x3efe1f20	0.49633121
141	0xbb15291f	-0.0022760106
142	0xbe541a3e	-0.20713136
143	0xbd8ff5f6	-0.07029335
144	0x3e66ebfc	0.22550958
145	0xbebe5ca2	-0.37180048
146	0xbd4ef560	-0.050526977
147	0xbeb146ee	-0.34624428
148	0x3e7df974	0.2480219
149	0x3e33b14c	0.17548102
150	0xbcea6579	-0.028612839
151	0xbeb10938	-0.34577346
152	0xbd97eecb	-0.07418593
153	0x3dc60f2b	0.09670862
154	0xbe687a78	-0.22702968
155	0x3dc6ec1f	0.09713005
156	0x3d226c3c	0.039654
157	0xbdc98cf4	-0.09841338
158	0x3e483444	0.19551188
159	0xbbb1f93f	-0.005431324
160	0xbe249acf	-0.1607468
161	0xbe8a8304	-0.27053082
162	0xbd68023d	-0.05664276
163	0x3dcfa73a	0.10139318
164	0x3cb99d62	0.022658054
165	0x3e66bdad	0.22533293
166	0x3e8063d5	0.25076166
167	0xbe3e65b6	-0.18593487
168	0x3da9decf	0.082944505
169	0xbb3f01d6	-0.0029145381
170	0x3d42b687	0.047537353
171	0xbea6c97f	-0.32575604
172	0xbc2dc7a7	-0.010606683
173	0x3d8d4944	0.0689874
174	0x3d55cd5c	0.0521978
175	0xbb25e197	-0.0025311464
176	0x3eee1972	0.46503788
177	0xbe21f8a4	-0.15817505
178	0x3e471b2e	0.19443962
179	0xbe8e94d5	-0.27847925
180	0xbcd8265f	-0.026385484
181	0xbea0c4cc	-0.31400144
182	0xbd4b5793	-0.049644064
183	0xbdd9cbdb	-0.106345855
184	0xbe53e6de	-0.20693538
185	0x3ebb804f	0.3662133
186	0xbe01a7f3	-0.12661724
187	0xbeaf0211	-0.34181264
188	0xbe00954e	-0.12556955
189	0xbdab8b90	-0.08376229
190	0xbd81c11a	-0.06335659
191	0x3dcba196	0.099429294
192	0x3d8cecaf	0.06881081
193	0x3da79380	0.0818243
194	0xbe5fdfe4	-0.21862751
195	0x3ef43440	0.47696114
196	0xbd3ecfdf	-0.04658496
197	0xbe4034fc	-0.18770212
198	0x3e4f717a	0.20258132
199	0xbd4edbf4	-0.050502732
200	0x3e0ebded	0.13939638
201	0xbd07fb9a	-0.03319893
202	0x3d26407e	0.04058885
203	0x3f0221d5	0.50832874
204	0x3dff0c74	0.12453547
205	0x3dc1e15e	0.094668135
206	0x3e1f2a2f	0.15543436
207	0xbf1b8fc4	-0.60766244
208	0xbe705f4b	-0.23473851
209	0x3e043c93	0.12913732
210	0xbe2d8719	-0.16946067
211	0x3d16e470	0.03683895
212	0xbcf42264	-0.029801555
213	0xbe0520af	-0.13000749
214	0xbf04b6ea	-0.51841605
215	0xbef138b2	-0.47113568
216	0x3c64d9bf	0.01396793
217	0xbe46c71a	-0.19411889
218	0x3e87033c	0.26369655
219	0x3d36293c	0.044472918
220	0xbe841a03	-0.25801095
221	0x3e13f1c5	0.14447697
222	0x3e1fde93	0.15612249
223	0xbd4dab38	-0.050212115
224	0x3e0d3e75	0.13793357
225	0x3e380ca9	0.1797358
226	0xbe9e6d91	-0.30942968
227	0xbe09146a	-0.13386694
228	0x3c86f350	0.016473442
229	0x3e11b9ea	0.14231077
230	0xbdb21ada	-0.08696528
231	0x3d5d1b05	0.053980846
232	0xbda51f78	-0.08062643
233	0xbedf3a8d	-0.43599358
234	0xbdf58aae	-0.11989342
235	0xbda43b16	-0.08019082
236	0xbe0408e7	-0.12894021
237	0xbcdd581b	-0.027019551
238	0x3c486954	0.012232143
239	0x3edc7656	0.43059033
240	0xbe6d6b53	-0.23185472
241	0xbe09abdd	-0.13444467
242	0x3e363f77	0.17797647
243	0xbe95ef07	-0.29283926
244	0x3ceaba57	0.028653307
245	0xbe2af328	-0.16694319
246	0xbec1f497	-0.3788192
247	0x3dfd96d8	0.12382287
248	0xbdaa4c25	-0.08315305
249	0x3e9097e2	0.28240877
250	0xbc97b39c	-0.018518262
251	0xbd410c08	-0.047130615
252	0xbe1c152e	-0.15242454
253	0x3d73ac60	0.05949056
254	0xbe0fce70	-0.14043593
255	0x3b6f9834	0.0036559226

bias f4 [10]
0	0x3e14400e	0.1447756
1	0xbe2a5d73	-0.1663721
2	0x3e6709ef	0.22562383
3	0xbe1cf10a	-0.15326324
4	0xbe0f0725	-0.13967569
5	0xbc3c931a	-0.011509681
6	0x3de12600	0.10993576
7	0x3d92f9e7	0.07176571
8	0xbcecb125	-0.028893063
9	0x3d2a4eff	0.041579243
