AML/HW1/Theory/data/mlp2.pt (torch, 428703 bytes, 12 tensors)

weight f4 [64, 784]
-0.0014384596 0.0063686967 -0.05897419 -0.0710952 0.07764401 0.019532694 0.08110941 -0.047622308
-0.066128306 -0.06781154 -0.0747951 0.061752226 -0.037834965 -0.047880884 0.045902815 0.055259794
-0.0033334112 -0.05561608 -0.009220034 -0.04215552 0.0407806 0.010595663 0.03310506 0.011405171
0.14270881 0.014709489 0.054792717 0.10081659 -0.011927106 -0.014284521 -0.05424517 0.040797357
-0.123873375 -0.001838544 -0.027991446 0.008616222 0.05725846 -0.011315658 -0.024106788 -0.02290554
-0.03857604 -0.10345806 -0.029517284 -0.08920001 -0.02136157 0.048308223 -0.0015985339 -0.0007341053
0.03937536 0.036817458 -0.0013506437 -0.016669761 0.12975147 0.008064282 0.013845489 -0.021616302
0.031529676 -0.025607107 -0.019419631 0.0748254 -0.016743269 0.022731578 -0.0036443283 0.025541
0.009465152 0.0135285845 0.004850637 0.017845608 0.039160717 0.01464975 0.049016777 -0.024070987
0.09699081 -0.028848553 0.018216403 -0.014045775 0.017395755 0.011251649 0.06279333 0.013569576
0.02988048 0.10620963 -0.03729811 -0.027100436 0.06083335 -0.02480254 0.0052309646 -0.11674301
-0.0011191304 -0.01816523 0.03509972 -0.07325222 -0.019879667 0.063168466 -0.025876738 0.01122563
-0.08125236 -0.025323564 0.066885695 -0.070414335 0.027149146 0.020249631 0.027539898 -0.0081291525
0.0187141 0.05457843 -0.031042736 0.005787874 0.08344996 0.00058602105 0.0074304943 0.06428297
-0.0027691592 0.040446136 0.00017513357 0.0034471205 0.031490017 -0.028366104 -0.051019628 -0.06405437
-0.018147413 -0.0889475 0.06974874 0.06588028 0.040903125 -0.03984058 -0.015909689 -0.01381773
0.024763955 -0.029720068 0.04494839 0.00053266843 0.040458653 0.013926677 0.015368005 -0.04821468
-0.00864665 0.0058225025 0.026373612 -0.047786843 0.049152873 -0.0724342 0.037966363 -0.037048418
-0.07178817 -0.004145729 -0.031058697 0.056568 0.02585162 0.071918964 -0.039526444 -0.047344152
-0.02729506 -0.005239641 0.06361318 0.015186625 -0.011266508 0.054531105 0.008002987 0.0058545633
0.030456241 -0.025304116 0.088915884 -0.106581524 -1.8882783e-05 -0.07600577 -0.0663858 -0.016819855
-0.014704171 0.038282067 0.031659298 -0.032613095 -0.032798532 -0.085345834 0.039299794 0.047403876
0.032988716 -0.04381133 -0.011177325 -0.035126258 0.018216733 -0.021649672 -0.02950307 -0.08509495
-0.027119039 0.11523062 0.05361933 -0.0090647945 0.03663397 -0.01752872 -0.0547693 -0.026980694
0.033050608 0.0375011 -0.050708838 -0.0058728284 -0.028329888 0.044845637 -0.063060984 0.048225448
0.02625687 0.04665444 0.05832361 -0.047513485 -0.1350789 0.0103835035 0.111914925 0.02864321
-0.008364388 -0.0029748527 0.00074363424 -0.036355197 3.7729136e-05 -0.0073150396 0.021472408 -0.025222806
0.034158647 -0.030761346 0.07280545 0.040357936 0.0032692587 0.019377543 0.017202372 0.14754876
0.03476097 -0.058459595 -0.020932643 -0.07954907 0.032687414 0.043581888 0.13875338 0.007909642
-0.014079065 -0.07158263 -0.030372305 -0.019678732 -0.0020260091 0.028464504 -0.025703507 -0.05835854
0.05794739 -0.040444806 -0.03810105 0.006944879 -0.0388672 0.022327539 -0.05793702 0.033575088
0.067788094 -0.061069433 -0.0049778023 -0.038503252 0.018151792 0.0026874829 0.07185868 -0.049985252
00000000: b28a bcba 80b0 d03b ec8e 71bd 5c9a 91bd
00000010: d303 9f3d 0703 a03c b11c a63d 9c0f 43bd
00000020: 476e 87bd c7e0 8abd 2c2e 99bd e7ef 7c3d
00000030: d6f8 1abd bf1e 44bd 9704 3c3d 1858 623d
00000040: 5c75 5abb b0cd 63bd a00f 17bc 44ab 2cbd
00000050: 8f09 273d 6f99 2d3c 2c99 073d c1dc 3a3c
00000060: 4222 123e 1200 713c 546e 603d ee78 ce3d
00000070: e969 43bc a009 6abc 2f30 5ebd 211b 273d
00000080: 53b1 fdbd 4dfb f0ba 514e e5bc 0e2b 0d3c
00000090: d987 6a3d 4f65 39bc 997b c5bc 66a4 bbbc
000000a0: e901 1ebd d2e1 d3bd 3bce f1bc 7fae b6bd
000000b0: 76fe aebc d8de 453d e685 d1ba f970 40ba
000000c0: 0f48 213d e7cd 163d 1508 b1ba 068f 88bc
000000d0: 92dd 043e 0d20 043c 31d8 623c ac14 b1bc
000000e0: 4325 013d ffc5 d1bc eb15 9fbc 0f3e 993d
000000f0: 2e29 89bc 9337 ba3c afd5 6ebb 5c3b d13c
00000100: ba13 1b3c ffa6 5d3c 18f2 9e3b f430 923c
00000110: fd66 203d 8105 703c d1c5 483d 8530 c5bc
00000120: 1ea3 c63d cd53 ecbc 913a 953c 4020 66bc
00000130: 8b81 8e3c d658 383c ca99 803d ed52 5e3c
00000140: e9c7 f43c 6f84 d93d e7c5 18bd bc01 debc
00000150: 642c 793d b22e cbbc 8368 ab3b f616 efbd
00000160: c9af 92ba 40cf 94bc b9c4 0f3d 4305 96bd
00000170: afda a2bc 785e 813d 74fb d3bc b4eb 373c
00000180: a367 a6bd 5d73 cfbc 5efb 883d 6435 90bd
00000190: e367 de3c 8ee2 a53c 5a9b e13c 2330 05bc
000001a0: 504e 993c a28d 5f3d 564d febc 35a8 bd3b
000001b0: d0e7 aa3d 359f 193a 817b f33b caa6 833d
000001c0: c87a 35bb d9aa 253d 0fa4 3739 16e9 613b
000001d0: adfb 003d 0860 e8bc f5f9 50bd f02e 83bd
000001e0: e2a9 94bc 1b2a b6bd 6dd8 8e3d 3eec 863d
000001f0: 098a 273d e02f 23bd 0955 82bc c363 62bc
00000200: c7dd ca3c 8077 f3bc ce1b 383d c6a2 0b3a
00000210: f9b7 253d b82c 643c 16ca 7b3c c27c 45bd
00000220: aeaa 0dbc b1ca be3b 790d d83c 23bc 43bd
00000230: 8654 493d 6258 94bd 9e82 1b3d 15c0 17bd
00000240: ad05 93bd e5d8 87bb cf6e febc d9b3 673d
00000250: c7c6 d33c 404a 933d 7be6 21bd f1eb 41bd
00000260: e499 dfbc 4bb1 abbb a047 823d 52d1 783c
00000270: 2997 38bc 025c 5f3d f61e 033c a3d7 bf3b
00000280: 5e7f f93c 944a cfbc 8819 b63d 6a47 dabd
00000290: 7866 9eb7 eaa8 9bbd 47f5 87bd cbc9 89bc
000002a0: c3e9 70bc a8cd 1c3d 2ead 013d 4f95 05bd
000002b0: c157 06bd ccc9 aebd d2f8 203d 912a 423d
000002c0: 2d1f 073d 8273 33bd 1921 37bc 8de0 0fbd
000002d0: 423b 953c a75a b1bc 6cb0 f1bc 4346 aebd
000002e0: bf28 debc 08fe eb3d f19f 5b3d 8184 14bc
000002f0: 800d 163d 6498 8fbc c655 60bd 9e06 ddbc
00000300: 1360 073d c19a 193d 12b4 4fbd db70 c0bb
00000310: 1514 e8bc 0fb0 373d 1e26 81bd 0c88 453d
00000320: a618 d73c ba18 3f3d bde4 6e3d 809d 42bd
00000330: 2052 0abe 921f 2a3c a733 e53d 2aa5 ea3c
00000340: c90a 09bc bff5 42bb 73f0 423a 30e9 14bd
00000350: 5a3f 1e38 00b3 efbb e7e6 af3c 0fa0 cebc
00000360: f0e9 0b3d 38ff fbbc 061b 953d 5d4e 253d
00000370: 0f41 563b a7bd 9e3c fdeb 8c3c 0617 173e
00000380: 8561 0e3d 5473 6fbd ef7a abbc 9fea a2bd
00000390: 3de3 053d ec82 323d 5e15 0e3e 7197 013c
000003a0: e1ab 66bc ea99 92bd 57cf f8bc 4b35 a1bc
000003b0: cbc6 04bb 642e e93c 2990 d2bc 5d09 6fbd
000003c0: 3e5a 6d3d 74a9 25bd d90f 1cbd de91 e33b
000003d0: 3733 1fbd 3ee8 b63c 5e4f 6dbd 0886 093d
000003e0: 7cd4 8a3d f123 7abd d51c a3bb 96b5 1dbd
000003f0: 11b3 943c 7b20 303b a52a 933d 56bd 4cbd

bias f4 [64]
0.0071441075 -0.005025275 0.013103213 0.0076145604 -0.017846763 0.044993907 0.009344265 -0.01773937
-0.013979505 -0.023799818 0.025485834 0.022874437 -0.008526254 -0.010959412 0.02053694 -0.012323119
-0.0043416433 0.03650925 -0.01279206 -0.008808846 0.0017728198 -0.01084531 -0.010824492 -0.01786823
-0.027072364 -0.02224787 0.018512173 0.028001854 0.023790948 0.022278871 -0.012674719 -0.022356812
-0.033053547 0.026835494 -0.025568664 -0.0009065815 -0.0318769 0.016366009 0.004081844 0.017730508
-0.008482086 0.01577718 0.023364212 -0.021814616 -0.035137583 0.010042396 0.02542062 0.0031901093
0.035472553 -0.006641395 0.013250726 0.013438547 0.01573358 -0.03014444 0.010095979 0.004257652
0.0030976469 -0.029453376 -0.00066771137 -0.024494505 -0.020172078 -0.026274571 0.0014736744 0.01783565
00000000: 1e19 ea3b 10ab a4bb dcae 563c 9083 f93b
00000010: 6033 92bc 884b 383d b018 193c 2852 91bc
00000020: 4b0a 65bc d6f7 c2bc abc7 d03c 2c63 bb3c
00000030: b4b1 0bbc 1b8f 33bc 163d a83c e8e6 49bc
00000040: 5844 8ebb b98a 153d ca95 51bc fa52 10bc
00000050: f65d e83a 87b0 31bc 3659 31bc 6560 92bc
00000060: ddc6 ddbc 2a41 b6bc d7a6 973c 2564 e53c
00000070: 3ce5 c23c 2e82 b63c a0a9 4fbc a225 b7bc
00000080: 2863 07bd 1cd6 db3c 6075 d1bc a8a7 6dba
00000090: 5a91 02bd 0212 863c fdc0 853b 923f 913c
000000a0: 72f8 0abc 253f 813c 4e66 bf3c 91b4 b2bc
000000b0: 6dec 0fbd dd88 243c e73e d03c 2711 513b
000000c0: ab4b 113d 0fa0 d9bb 9319 593c 5a2d 5c3c
000000d0: b5e3 803c 79f1 f6bc 9b69 253c c683 8b3b
000000e0: e401 4b3b 3548 f1bc 5a09 2fba b3a8 c8bc
000000f0: ea3f a5bc c53d d7bc 4f28 c13a 121c 923c

weight f4 [32, 64]
0.04064743 -0.015564402 -0.13842624 -0.036248587 0.18184267 -0.054517902 0.0051873485 0.049385644
0.12270163 -0.245403 0.05529593 -0.011650876 -0.16098817 -0.067009136 -0.23237193 -0.13293508
-0.11596147 -0.25347337 0.113055125 -0.0049998476 0.17284866 0.22147633 -0.018961584 -0.16527446
-0.03638216 -0.31889746 -0.04053014 -0.08713982 0.059378233 0.06875396 0.10562565 0.10023994
0.06692647 -0.22437768 -0.0028462363 0.2432047 -0.20361245 -0.06391981 -0.02103104 -0.026049355
0.12389827 0.08216794 0.22267003 0.19362094 -0.23901711 -0.28590682 -0.04718671 -0.22438541
0.043200653 -0.040894885 -0.15173155 0.057009086 0.14773771 -0.1312585 -0.113415934 -0.123169206
0.003645827 0.1713306 0.05086257 -0.022845067 -0.01438971 -0.039644077 0.02885834 0.07993117
-0.059456285 0.069543436 0.084353395 -0.22439052 -0.1268555 -0.06178583 0.050839175 -0.07753559
0.0021164701 -0.06019145 -0.06021297 -0.1826308 0.09149894 0.18287349 0.35911572 0.039771467
0.18192737 -0.025655229 0.23298118 -0.13980086 -0.11022194 -0.040240142 0.09304642 -0.045384653
-0.004016777 0.06840533 -0.043394584 -0.08133486 -0.08175974 0.045331996 -0.023889974 -0.06366619
0.13074309 -0.12537463 0.22731258 -0.06859838 -0.10129935 -0.08554299 0.022074182 0.006566054
-0.011837871 -0.0982897 0.04696808 -0.006124637 0.13350642 -0.12648045 0.08244314 0.041028883
0.20226078 0.10374764 -0.13961202 -0.29587707 -0.07218053 0.1859962 0.10431108 0.3307272
0.1911087 -0.00093434664 0.2115549 0.025626585 0.09028751 0.049222603 0.15007257 -0.10938494
0.1031224 0.033342857 -0.044184122 0.26333964 -0.099341 0.32051015 0.09958176 -0.010761745
-0.10389893 0.15323445 -0.1914853 -0.19207963 -0.22100787 0.010520673 -0.104744226 0.033767242
-0.051590186 -0.13587137 0.07778942 0.14294235 -0.14608261 -0.03899897 -0.07571231 0.1711574
-0.07527178 -0.118473545 0.14826448 0.100050755 -0.21699616 -0.046945423 0.2164271 -0.23953545
-0.0029042137 0.025458982 0.1833622 0.075126685 -0.04975885 -0.09775397 0.2044464 0.13116339
-0.16867219 -0.08941687 -0.1793811 0.15526022 -0.012929208 -0.23432977 -0.101273954 -0.0671025
-0.044877943 -0.18509404 0.11832428 -0.27197304 -0.22140445 0.07146714 0.26750153 -0.36002478
0.08975524 0.0028577591 0.02482149 0.027204854 0.11237324 -0.03495087 0.07233205 0.05421401
-0.16172037 -0.22487833 -0.06447562 -0.10903563 0.1841633 -0.06363118 -0.009341441 -0.22690693
0.013291934 0.10369657 0.010667968 -0.047035184 0.20267932 -0.15229735 -0.1805025 0.08016479
-0.08296491 0.07072389 -0.20923236 0.15858263 0.120743796 -0.04656601 0.051236987 -0.16546986
-0.35676745 -0.21518247 -0.03741229 -0.04868102 -0.071105376 -0.06575887 0.12711054 0.004273626
0.04712211 0.13058095 -0.16460215 -0.14020073 -0.026986437 0.09093864 -0.0015208735 -0.0623068
0.014098708 -0.055359177 -0.057224113 -0.16450302 0.039510045 0.05155409 0.013973324 -0.032359213
0.3456247 0.11131071 -0.017374668 -0.1831098 0.16282776 0.1357176 -0.07506143 0.00823147
0.088009536 -0.109974876 -0.014855698 -0.16299626 0.16358206 0.1254369 -0.13617785 0.037141144
00000000: eb7d 263d d501 7fbc 9cbf 0dbe 6679 14bd
00000010: f734 3a3e 2a4e 5fbd a2fa a93b 9a48 4a3d
00000020: fe4a fb3d ed4a 7bbe fc7d 623d 51e3 3ebc
00000030: 15da 24be 163c 89bd e8f2 6dbe 2220 08be
00000040: 357d edbd 43c7 81be 7289 e73d c3d5 a3bb
00000050: 3dff 303e b1ca 623e 5355 9bbc b53d 29be
00000060: 7605 15bd 8746 a3be ef02 26bd 5d76 b2bd
00000070: 9736 733d e0ce 8c3d 4352 d83d 994a cd3d
00000080: bf10 893d 43c3 65be ec87 3abb a70a 793e
00000090: c87f 50be 64e8 82bd 4a49 acbc 7565 d5bc
000000a0: 60be fd3d aa47 a83d 9d03 643e 9144 463e
000000b0: e7c0 74be 6162 92be da46 41bd 4ac5 65be
000000c0: 2bf3 303d 6581 27bd 845f 1bbe 5c82 693d
000000d0: 8e48 173e a168 06be 9d46 e8bd 2340 fcbd
000000e0: d4ee 6e3b 4a71 2f3e 4555 503d 9425 bbbc
000000f0: d1c2 6bbc d461 22bd 5368 ec3c f4b2 a33d
00000100: 6f88 73bd ca6c 8e3d 79c1 ac3d a1c6 65be
00000110: 68e6 01be 2313 7dbd bd3c 503d fbca 9ebd
00000120: 7ab4 0a3b 4f8b 76bd e0a1 76bd 9203 3bbe
00000130: cc63 bb3d 3043 3b3e 04de b73e 68e7 223d
00000140: 2b4b 3a3e ea2a d2bc 9e92 6e3e f527 0fbe
00000150: 0abc e1bd d9d2 24bd 1f8f be3d 42e5 39bd
00000160: 2b9f 83bb 1818 8c3d 85be 31bd e492 a6bd
00000170: a771 a7bd 0bae 393d e8b4 c3bc 6b63 82bd
00000180: 84e1 053e 3562 00be a1c4 683e 4f7d 8cbd
00000190: 0976 cfbd 2a31 afbd ead4 b43c 0e28 d73b
000001a0: a1f3 41bc 1c4c c9bd 9a61 403d 2eb1 c8bb
000001b0: e8b5 083e 1784 01be f3d7 a83d e70d 283d
000001c0: 731d 4f3e a579 d43d 74f6 0ebe 337d 97be
000001d0: 63d3 93bd ca75 3e3e 0ca1 d53d 1355 a93e
000001e0: 00b2 433e f1ee 74ba d9a1 583e d8ee d13c
000001f0: a8e8 b83d a49d 493d a0ac 193e 3605 e0bd
00000200: d631 d33d 8592 083d 69fa 34bd 74d4 863e
00000210: 4b73 cbbd e819 a43e 86f1 cb3d 0852 30bc
00000220: f6c8 d4bd 7ee9 1c3e b914 44be 86b0 44be
00000230: e34f 62be e75e 2c3c 2484 d6bd 854f 0a3d
00000240: 3b50 53bd dd21 0bbe 0f50 9f3d 7b5f 123e
00000250: ae96 15be 62bd 1fbd 0e0f 9bbd e343 2f3e
00000260: 1728 9abd 42a2 f2bd a5d2 173e 69e7 cc3d
00000270: 3e34 5ebe d849 40bd 119f 5d3e c848 75be
00000280: 9f54 3ebb 5b8f d03c 4dc3 3b3e 05dc 993d
00000290: f0cf 4bbd 3c33 c8bd 665a 513e b24f 063e
000002a0: 67b8 2cbe 3120 b7bd aeaf 37be 89fc 1e3e
000002b0: 07d5 53bc 25f4 6fbe b868 cfbd 096d 89bd
000002c0: efd1 37bd 4b89 3dbe 0054 f23d 0d40 8bbe
000002d0: d9b7 62be 5d5d 923d f6f5 883e 2b55 b8be
000002e0: 98d1 b73d 3e49 3b3b 7056 cb3c b7dc de3c
000002f0: f123 e63d a528 0fbd d322 943d 820f 5e3d
00000300: 069a 25be 8146 66be cb0b 84bd 134e dfbd
00000310: 4e95 3c3e 1051 82bd d80c 19bc 4a5a 68be
00000320: 69c6 593c de5e d43d b3c8 2e3c f7a7 40bd
00000330: 2b8b 4f3e d6f3 1bbe a6d5 38be 702d a43d
00000340: 82e9 a9bd b0d7 903d 0241 56be 7c63 223e
00000350: 8648 f73d 00bc 3ebd e0dd 513d ee70 29be
00000360: 39aa b6be cb58 5cbe a13d 19bd c065 47bd
00000370: b29f 91bd 96ac 86bd 4429 023e c609 8c3b
00000380: 1d03 413d 03b7 053e 778d 28be c890 0fbe
00000390: a912 ddbc 0a3e ba3d 0c58 c7ba 6a35 7fbd
000003a0: 44fe 663c 4ec0 62bd d563 6abd 7b73 28be
000003b0: 49d5 213d 622a 533d 5ef0 643c 188b 04bd
000003c0: b8f5 b03e dff6 e33d 5255 8ebc 2381 3bbe
000003d0: 52bc 263e 8ef9 0a3e cfb9 99bd 4add 063c
000003e0: 583e b43d 823a e1bd 5065 73bc 7ee8 26be
000003f0: 0e82 273e 8872 003e 3572 0bbe 5021 183d

bias f4 [32]
-0.12817274 0.086572364 0.07583296 0.008785991 0.008502195 -0.10226623 0.13514507 -0.048915237
0.0022186886 0.027154204 -0.063470215 -0.11926764 -0.029155038 0.090798266 0.017519377 -0.11406074
-0.08235154 -0.040180683 -0.06946345 -0.0595362 -0.0805672 0.11167774 -0.065899394 -0.13457802
-0.0117982365 0.12024997 0.059100397 -0.1239345 0.052067526 0.109428264 0.10197448 -0.03997047
00000000: b73f 03be da4c b13d 504e 9b3d 1ef3 0f3c
00000010: ca4c 0b3c f570 d1bd 7863 0a3e 585b 48bd
00000020: 6b67 113b 7e72 de3c acfc 81bd 9842 f4bd
00000030: 8cd6 eebc 71f4 b93d cc84 8f3c ad98 e9bd
00000040: eda7 a8bd 8094 24bd da42 8ebd 3bdc 73bd
00000050: 6b00 a5bd 4db7 e43d 43f6 86bd d2ce 09be
00000060: 644d 41bc 9e45 f63d 4213 723d 5fd1 fdbd
00000070: c244 553d ed1b e03d ffd7 d03d 13b8 23bd

weight f4 [10, 32]
-0.3964823 0.116648234 0.19969478 -0.11834834 0.320056 -0.046766944 0.3198446 0.32899642
-0.111140236 0.15039872 0.07350459 0.12947766 0.07885965 -0.30337092 -0.10792433 0.019820934
0.5403608 0.24868791 -0.13071278 0.2890122 0.00011634739 0.005193633 0.3888299 -0.13585538
-0.06630856 -0.05012187 0.101188734 -0.6028493 0.07604132 0.04631509 0.14317784 0.06650399
-0.078187265 -0.3648557 -0.11321824 -0.13281585 0.28999478 0.002525226 -0.07709125 0.23466074
-0.08379372 -0.2355242 -0.26848868 -0.14412782 -0.15121883 -0.3536194 0.2525637 -0.24638213
-0.028431963 0.100940056 0.080173306 -0.13542055 0.28179848 -0.13557358 -0.120039806 0.044141497
0.18888588 -0.22225592 -0.3509654 0.6130518 -0.0031201225 -0.021463681 0.107416406 0.09322204
0.10534736 0.04322566 0.2642882 0.12579097 -0.13900682 0.004046896 0.16416627 -0.07888939
-0.62617683 -0.4081197 0.07281954 -0.06286251 -0.21319002 0.41510832 0.25863895 -0.056264132
-0.1554723 0.064205796 0.083341815 0.055977877 0.1479523 -0.11658919 -0.22832611 -0.058077194
0.0871587 0.26439375 0.089440346 0.3674422 -0.13417487 -0.22962904 -0.18428762 0.31019717
0.040784877 0.027214972 -0.30412412 -0.077198036 0.30772913 0.51435167 0.37444925 0.16499352
0.29788467 0.17232122 -0.41056967 0.110202774 0.24842316 -0.38220724 -0.0792136 -0.14471883
0.04263671 0.19081526 0.15002862 -0.1550327 -0.10997366 0.043899573 -0.08158327 -0.11572702
0.3989597 0.33978304 0.22205183 -0.13485852 0.16142628 -0.24720663 0.15611024 0.33629116
0.0061763804 0.13140963 -0.20936826 -0.34503832 0.289578 0.12440226 -0.06699288 0.24211179
-0.208099 0.21148801 -0.31580895 0.05624835 0.11129453 -0.015566884 0.029537054 -0.3954198
-0.20625408 0.26240313 -0.089911796 0.21659039 -0.24118401 -0.07587837 -0.19204967 -0.07787347
-0.35738328 -0.1380067 0.0779489 -0.2868831 0.13911766 0.029175214 -0.019888137 -0.050002877
-0.22174029 0.28785166 0.12593916 -0.252117 0.45489466 0.100250244 0.025073068 -0.13531242
-0.1678945 -0.12090122 0.15272115 -0.20272039 -0.21595563 -0.1338 -0.13213824 -0.09049091
0.16256286 -0.100720786 0.11531244 -0.1694181 -0.09658812 -0.2763619 -0.1746985 0.23240899
-0.045543894 -0.36329556 -0.02058905 0.28037018 -0.3127252 -0.08641506 0.22176698 0.07252312
0.029742446 -0.10174522 -0.044729415 -0.022098817 -0.0147432815 -0.19538014 0.059233613 -0.22415681
-0.2611159 0.038331933 0.22814672 -0.18106 0.34498036 0.0587743 0.25228214 0.1458084
-0.20863673 0.19182998 -0.17700236 -0.16398709 0.105173044 0.05259913 -0.029152663 -0.0066781477
0.046963483 0.10821152 0.116066135 -0.03677579 -0.2677445 -0.14649151 0.2841792 0.2928128
0.04519266 0.22894655 -0.2247917 -0.083578415 -0.2793112 -0.05097122 -0.19039026 0.33057907
-0.10212056 -0.2603445 -0.24146518 -0.02346348 0.07635848 -0.12892644 -0.007912838 -0.31054112
0.26455483 0.012243761 0.02367886 -0.3421425 -0.020289414 -0.06847168 -0.0684458 0.009041908
0.34058994 -0.0467565 0.16995825 -0.18584295 -0.20121157 0.24341585 -0.17118509 -0.26606455
00000000: baff cabe 45e5 ee3d ca7c 4c3e 9d60 f2bd
00000010: 61de a33e b28e 3fbd acc2 a33e 3872 a83e
00000020: 7e9d e3bd 1f02 1a3e 9389 963d cb95 043e
00000030: 2b81 a13d 6f53 9bbe 6e07 ddbd 835f a23c
00000040: 1655 0a3f 0ba8 7e3e 92d9 05be 68f9 933e
00000050: 88ff f338 5a2f aa3b b614 c73e ac1d 0bbe
00000060: c8cc 87bd 974c 4dbd 0a3c cf3d 5554 1abf
00000070: 8dbb 9b3d e4b4 3d3d 369d 123e 3e33 883d
00000080: a520 a0bd 5ece babe f7de e7bd e100 08be
00000090: 327a 943e 437e 253b 04e2 9dbd e84a 703e
000000a0: 0b9c abbd 422d 71be 5977 89be 3e96 13be
000000b0: 1cd9 1abe 9a0d b5be 0750 813e 994b 7cbe
000000c0: 26ea e8bc a9b9 ce3d e731 a43d afab 0abe
000000d0: e447 903e cdd3 0abe 6ed7 f5bd b7cd 343d
000000e0: 4d6b 413e 0e97 63be bdb1 b3be f6f0 1c3f
000000f0: f87a 4cbb 9ad4 afbc 22fd db3d 32eb be3d
00000100: 5bc0 d73d 640d 313d c850 873e 59cf 003e
00000110: ce57 0ebe d39b 843b 341b 283e c390 a1bd
00000120: 204d 20bf 11f5 d0be 6922 953d 0fbe 80bd
00000130: 7c4e 5abe 1489 d43e 536c 843e 3875 66bd
00000140: 2134 1fbe 547e 833d 1daf aa3d 0f49 653d
00000150: cf80 173e 50c6 eebd 52ce 69be 5ae2 6dbd
00000160: 4380 b23d 9e5e 873e 802c b73d 6221 bc3e
00000170: 2365 09be e023 6bbe e5b5 3cbe 2ad2 9e3e
00000180: 0b0e 273d eff1 de3c 28b6 9bbe 011a 9ebd
00000190: ac8e 9d3e 8dac 033f d0b7 bf3e 10f4 283e
000001a0: 5784 983e f974 303e 3036 d2be feb1 e13d
000001b0: a462 7e3e abb0 c3be bd3a a2bd 2c31 14be
000001c0: d5a3 2e3d 1365 433e 1aa1 193e e4c0 1ebe
000001d0: df39 e1bd 0ad0 333d 2115 a7bd 4a02 edbd
000001e0: 7244 cc3e 0bf8 ad3e 8e61 633e 5a18 0abe
000001f0: ee4c 253e bc23 7dbe 5ddb 1f3e 5b2e ac3e
00000200: 3c63 ca3b 3f90 063e a264 56be dda8 b0be
00000210: 9143 943e 9dc6 fe3d 9033 89bd 27ec 773e
00000220: e717 55be 5090 583e b6b1 a1be ab64 663d
00000230: 63ee e33d 3e0c 7fbc b1f7 f13c 7774 cabe
00000240: 4534 53be b459 863e ad23 b8bd dfc9 5d3e
00000250: f1f8 76be 1e66 9bbd aba8 44be 207c 9fbd
00000260: f1fa b6be a151 0dbe aca3 9f3d 57e2 92be
00000270: dc74 0e3e dc00 ef3c 72ec a2bc d1cf 4cbd
00000280: e30f 63be 4b61 933e 32f6 003e 7b15 81be
00000290: f4e7 e83e 0050 cd3d 0966 cd3c 578f 0abe
000002a0: 89ec 2bbe 0f9b f7bd ef62 1c3e ef95 4fbe
000002b0: 7923 5dbe de02 09be 3f4f 07be 4c53 b9bd
000002c0: e176 263e b346 cebd ee28 ec3d f07b 2dbe
000002d0: fecf c5bd 4f7f 8dbe 2ae4 32be 9ffc 6d3e
000002e0: 3c8c 3abd e001 babe 5eaa a8bc ae8c 8f3e
000002f0: 841d a0be 61fa b0bd e216 633e 0087 943d
00000300: 6ea6 f33c cc5f d0bd 3136 37bd 9408 b5bc
00000310: ce8d 71bc bb11 48be f29e 723d 5d89 65be
00000320: fcb0 85be f201 1d3d 4b9f 693e cb67 39be
00000330: 44a1 b03e 52bd 703d 202b 813e cc4e 153e
00000340: dea4 55be 146f 443e 1b40 35be 3bec 27be
00000350: f764 d73d 2f72 573d 91d1 eebc 5dd4 dabb
00000360: c85c 403d 009e dd3d 15b4 ed3d 36a2 16bd
00000370: cf15 89be df01 16be f07f 913e 8feb 953e
00000380: f01b 393d f770 6a3e cc2f 66be 292b abbd
00000390: e101 8fbe 33c7 50bd aaf5 42be a941 a93e
000003a0: 9624 d1bd e04b 85be a642 77be 7c36 c0bc
000003b0: d661 9c3d 4b05 04be d9a4 01bc 3fff 9ebe
000003c0: bb73 873e 0e9a 483c 2bfa c13c 4d2d afbe
000003d0: fc35 a6bc e13a 8cbd 502d 8cbd 8324 143c
000003e0: ce61 ae3e be83 3fbd 8909 2e3e 9d4d 3ebe
000003f0: 680a 4ebe 0142 793e 254b 2fbe 9d39 88be

bias f4 [10]
0.22946136 -0.056344174 -0.0539149 0.17442219 -0.14057194 -0.06598666 0.028885143 -0.12624307
0.07328465 0.013243923
00000000: ebf7 6a3e 26c9 66bd dfd5 5cbd bb9b 323e
00000010: 17f2 0fbe 0424 87bd 89a0 ec3c dd45 01be
00000020: 4316 963d 0afd 583c

weight f4 [64, 784]
-0.0014400139 0.0063665137 -0.058971133 -0.07109122 0.077636115 0.019529466 0.08110126 -0.047620144
-0.06612471 -0.0678078 -0.07479079 0.06174561 -0.037833598 -0.0478787 0.045897506 0.055253718
-0.0033348142 -0.055613298 -0.009220963 -0.042153854 0.040775646 0.010593146 0.033100728 0.011402587
0.1426959 0.0147066405 0.05478668 0.10080688 -0.0119278245 -0.014285043 -0.05424249 0.0407924
-0.12386513 -0.0018400666 -0.027990904 0.008613872 0.05725221 -0.011316421 -0.024106512 -0.02290536
-0.03857462 -0.10345148 -0.029516606 -0.08919456 -0.021361528 0.0483027 -0.0016000738 -0.00073571503
0.03937054 0.036812853 -0.0013522052 -0.016670091 0.12973931 0.008061972 0.013842718 -0.021616237
0.031525478 -0.02560672 -0.019419773 0.07481774 -0.016743591 0.022728112 -0.0036457048 0.025537284
0.00946273 0.013525837 0.0048485775 0.017842487 0.039155915 0.0146469055 0.049011175 -0.024070714
0.09698138 -0.02884793 0.018213246 -0.01404632 0.017392673 0.011249075 0.06278666 0.0135668265
0.029876426 0.10619941 -0.037296783 -0.027099939 0.060826804 -0.024802212 0.00522888 -0.116735384
-0.0011207084 -0.01816546 0.035095256 -0.07324828 -0.01988003 0.063161395 -0.02587662 0.011222101
-0.0812531 -0.025333842 0.0668665 -0.07042078 0.027134612 0.02023448 0.027520057 -0.008145348
0.018704347 0.054567523 -0.03104215 0.0057857423 0.083441615 0.0005843052 0.007428233 0.064276196
-0.0027706088 0.040441204 0.00017345052 0.0034451773 0.03148524 -0.028365795 -0.051017836 -0.064051926
-0.018151576 -0.08894721 0.0697364 0.06585645 0.040865637 -0.03987667 -0.01594351 -0.013850784
0.024730628 -0.0297476 0.044930704 0.0005295465 0.040447254 0.013925239 0.0153690055 -0.048210338
-0.008646471 0.005820368 0.026369818 -0.047784664 0.04914726 -0.07243009 0.03796166 -0.037047077
-0.07178681 -0.004151031 -0.031063443 0.056552157 0.025838595 0.071906224 -0.039529737 -0.04736252
-0.027322654 -0.005273048 0.06357311 0.015154197 -0.011298982 0.054507684 0.0079968795 0.0058520804
0.030445118 -0.025303595 0.08891304 -0.106571175 -1.8569002e-05 -0.07600137 -0.06638218 -0.016820172
-0.014704655 0.038277335 0.03165508 -0.032612175 -0.0328006 -0.08534548 0.039287794 0.047391243
0.03297516 -0.043816015 -0.011179271 -0.035126694 0.018206725 -0.021654017 -0.029503232 -0.08509128
-0.027113808 0.115225405 0.053634442 -0.009040171 0.03663286 -0.017524289 -0.054757394 -0.026971735
0.03304889 0.037496433 -0.050706465 -0.0058740294 -0.02832932 0.04484039 -0.06305757 0.048219882
0.0262465 0.04663964 0.058308076 -0.047521316 -0.13507882 0.010387244 0.111922465 0.028657991
-0.008362631 -0.0029777568 0.00074006367 -0.036352586 5.845929e-05 -0.0072879465 0.021510927 -0.025182415
0.034166027 -0.030749595 0.07281897 0.040373974 0.0032726456 0.019374317 0.017199313 0.14753555
0.034756523 -0.05845659 -0.020932643 -0.07954453 0.032672305 0.04356632 0.13873416 0.00790494
-0.014072171 -0.07155503 -0.03033846 -0.019658955 -0.0020229013 0.028455563 -0.025708713 -0.05833845
0.0579592 -0.04042363 -0.038076013 0.0069678514 -0.03885529 0.022337316 -0.05790592 0.03359886
0.06779129 -0.0610662 -0.004979072 -0.038501836 0.018148642 0.0026856007 0.071851246 -0.049982972
00000000: d9be bcba 309e d03b b78b 71bd 4698 91bd
00000010: afff 9e3d 42fc 9f3c 6b18 a63d 570d 43bd
00000020: 646c 87bd d1de 8abd ea2b 99bd f7e8 7c3d
00000030: 67f7 1abd 751c 44bd 06ff 3b3d b951 623d
00000040: e68c 5abb c5ca 63bd 8613 17bc 85a9 2cbd
00000050: 5d04 273d e08e 2d3c a194 073d ebd1 3a3c
00000060: e01e 123e 1ff4 703c ff67 603d d673 ce3d
00000070: ec6c 43bc d00b 6abc 602d 5ebd ee15 273d
00000080: 00ad fdbd 642e f1ba 2e4d e5bc 3321 0d3c
00000090: 4b81 6a3d 8368 39bc 057b c5bc 06a4 bbbc
000000a0: 6c00 1ebd 5fde d3bd cfcc f1bc a3ab b6bd
000000b0: 5ffe aebc 0dd9 453d 91b9 d1ba 00dd 40ba
000000c0: 0143 213d 13c9 163d 7a3c b1ba b78f 88bc
000000d0: 62da 043e 5d16 043c 91cc 623c 8914 b1bc
000000e0: dc20 013d 2fc5 d1bc 3716 9fbc 0b3a 993d
000000f0: db29 89bc 4e30 ba3c c7ec 6ebb 9133 d13c
00000100: 9109 1b3c 799b 5d3c d1e0 9e3b 682a 923c
00000110: f461 203d 93f9 6f3c f1bf 483d f22f c5bc
00000120: 2c9e c63d 7e52 ecbc f233 953c 8922 66bc
00000130: 147b 8e3c 0a4e 383c 4b96 803d 6547 5e3c
00000140: 68bf f43c 147f d93d 83c4 18bd b100 debc
00000150: 8725 793d 022e cbbc 0657 ab3b f612 efbd
00000160: bce4 92ba bbcf 94bc 0bc0 0f3d 3203 96bd
00000170: 72db a2bc c35a 813d 35fb d3bc e7dc 373c
00000180: 0668 a6bd eb88 cfbc 4ef1 883d c538 90bd
00000190: 6849 de3c c8c2 a53c be71 e13c 1174 05bc
000001a0: dc39 993c 3282 5f3d 1b4c febc 5396 bd3b
000001b0: 70e3 aa3d 0f2c 193a 8968 f33b 3da3 833d
000001c0: 1a93 35bb ada5 253d 45e0 3539 7cc8 613b
000001d0: abf6 003d 625f e8bc 14f8 50bd a82d 83bd
000001e0: 9db2 94bc f429 b6bd f5d1 8e3d bfdf 863d
000001f0: ba62 273d b855 23bd f79b 82bc 66ee 62bc
00000200: e397 ca3c 3db1 f3bc 4209 383d 44d1 0a3a
00000210: 05ac 253d b026 643c 48ce 7b3c 3478 45bd
00000220: eea9 0dbc c9b8 be3b 8405 d83c dab9 43bd
00000230: a34e 493d 3a56 94bd b07d 1b3d adbe 17bd
00000240: f704 93bd 5f05 88bb c378 febc 3ca3 673d
00000250: 76ab d33c 9243 933d efe9 21bd 34ff 41bd
00000260: c2d3 dfbc 88c9 acbb 9e32 823d 4f49 783c
00000270: 5e1f 39bc 7343 5f3d 5805 033c cfc2 bf3b
00000280: 0a68 f93c 7c49 cfbc 0a18 b63d fd41 dabd
00000290: a1c4 9bb7 9ba6 9bbd 61f3 87bd 75ca 89bc
000002a0: cbeb 70bc b2c8 1c3d c2a8 013d 5894 05bd
000002b0: ec59 06bd 9cc9 aebd 3dec 203d 521d 423d
000002c0: f610 073d 6c78 33bd 4329 37bc 02e1 0fbd
000002d0: 4526 953c c463 b1bc c3b0 f1bc 5644 aebd
000002e0: c71d debc 4cfb eb3d caaf 5b3d 3a1d 14bc
000002f0: 560c 163d 198f 8fbc 4a49 60bd d4f3 dcbc
00000300: 465e 073d dc95 193d 95b1 4fbd ee7a c0bb
00000310: e412 e8bc 8faa 373d 5424 81bd 3682 453d
00000320: e602 d73c 3509 3f3d 73d4 6e3d b6a5 42bd
00000330: 1a52 0abe 422f 2a3c 9b37 e53d 2ac4 ea3c
00000340: 6b03 09bc 7826 43bb d500 423a 73e6 14bd
00000350: 2f32 7538 bacf eebb af37 b03c 5a4b cebc
00000360: adf1 0b3d 93e6 fbbc 1d22 953d 2e5f 253d
00000370: e279 563b e3b6 9e3c 93e5 8c3c 8f13 173e
00000380: db5c 0e3d 2d70 6fbd ef7a abbc 3ee8 a2bd
00000390: 65d3 053d 9972 323d 5410 0e3e b983 013c
000003a0: f78e 66bc 728b 92bd 5d88 f8bc d10b a1bc
000003b0: a792 04bb a41b e93c 149b d2bc 4cf4 6ebd
000003c0: a066 6d3d 4093 25bd 98f5 1bbd 9352 e43b
000003d0: b926 1fbd bffc b63c c22e 6dbd f59e 093d
000003e0: 29d6 8a3d 8d20 7abd 7c27 a3bb 1ab4 1dbd
000003f0: 76ac 943c e700 303b bf26 933d f2ba 4cbd

bias f4 [64]
0.007147467 -0.0050332104 0.013097033 0.007610032 -0.017854005 0.045014717 0.009327307 -0.017680869
-0.013927717 -0.023770846 0.025486244 0.022881987 -0.008503747 -0.010904619 0.020548332 -0.012319855
-0.0043515977 0.036555085 -0.012750599 -0.008765593 0.0017767106 -0.010815669 -0.010821937 -0.017861884
-0.027054524 -0.022231026 0.018506762 0.028040897 0.023779279 0.022322435 -0.012680874 -0.022349702
-0.03305487 0.026826117 -0.025550552 -0.0008866286 -0.031877875 0.016355278 0.0040929015 0.017775523
-0.008466604 0.015791921 0.023362895 -0.021823876 -0.03514214 0.010030005 0.02546736 0.0031918047
0.0354924 -0.006641149 0.013262533 0.013465265 0.015767204 -0.03013719 0.010153399 0.0042517995
0.0031465397 -0.029441252 -0.00064597436 -0.024503347 -0.020126015 -0.026272744 0.001477016 0.017890045
00000000: 4d35 ea3b a1ed a4bb f094 563c 935d f93b
00000010: 9042 92bc 5a61 383d 90d1 183c 78d7 90bc
00000020: 1431 64bc 14bb c2bc 87c8 d03c 0173 bb3c
00000030: 4d53 0bbc 49a9 32bc fa54 a83c 38d9 49bc
00000040: d997 8ebb c9ba 153d e3e7 50bc 909d 0fbc
00000050: 84e0 e83a 3434 31bc 7e4e 31bc 1653 92bc
00000060: 73a1 ddbc d71d b6bc 7e9b 973c 06b6 e53c
00000070: c3cc c23c 8add b63c 71c3 4fbc b916 b7bc
00000080: 8b64 07bd 72c2 db3c 644f d1bc a36c 68ba
00000090: 6092 02bd 81fb 853c bf1d 863b f99d 913c
000000a0: 83b7 0abc 0f5e 813c 8b63 bf3c fcc7 b2bc
000000b0: 34f1 0fbd e454 243c eda0 d03c 992d 513b
000000c0: 7b60 113d ff9d d9bb 184b 593c 6a9d 5c3c
000000d0: 392a 813c 45e2 f6bc 715a 263c ae52 8b3b
000000e0: 2d36 4e3b c82e f1bc 9b56 29ba 3ebb c8bc
000000f0: 50df a4bc f039 d7bc 6f98 c13a 258e 923c

weight f4 [32, 64]
0.04064445 -0.015560897 -0.13841172 -0.03624279 0.18183021 -0.054398205 0.0052054483 0.049407467
0.12282417 -0.2453664 0.05530416 -0.011590314 -0.16096587 -0.06684163 -0.23233539 -0.13291451
-0.11594942 -0.25340116 0.11311066 -0.0049762777 0.17285682 0.22149992 -0.01895922 -0.16525845
-0.03637528 -0.31886274 -0.040514573 -0.08701621 0.059409264 0.06881601 0.10562228 0.100240216
0.06692349 -0.2243598 -0.0028375483 0.24318682 -0.20359312 -0.06391432 -0.020987565 -0.025950989
0.12389638 0.08217572 0.22273046 0.19360986 -0.23899923 -0.28588298 -0.047061656 -0.22436407
0.04326694 -0.040853534 -0.15169515 0.057052817 0.14779735 -0.1312309 -0.1133611 -0.12315931
0.0038151983 0.17140158 0.050862458 -0.02284286 -0.014292513 -0.039624695 0.028891938 0.07992991
-0.059452612 0.069537535 0.08433105 -0.22437935 -0.12683997 -0.061758272 0.050822612 -0.07749246
0.0021030635 -0.0601327 -0.06019965 -0.18257935 0.09148474 0.18290536 0.35906225 0.039759506
0.18191752 -0.025661785 0.23295785 -0.13974167 -0.11021726 -0.040219385 0.09304674 -0.04538465
-0.00402423 0.06839817 -0.043394547 -0.08135101 -0.081756376 0.045384556 -0.023885401 -0.063656434
0.13073078 -0.12536246 0.22731863 -0.0685951 -0.10127689 -0.08554867 0.022131769 0.006626286
-0.011862028 -0.09828156 0.046951517 -0.006126747 0.13349424 -0.1264679 0.08245942 0.041025914
0.20224369 0.10373762 -0.13960537 -0.29587638 -0.07216509 0.1859771 0.10436799 0.33070326
0.19109364 -0.0009619051 0.21153753 0.025624212 0.09032485 0.049213972 0.15003337 -0.10933595
0.10310765 0.03333203 -0.044260822 0.26327175 -0.09931426 0.32053742 0.09950334 -0.010549642
-0.10396298 0.15341868 -0.19143385 -0.19191034 -0.22103012 0.010725538 -0.10484175 0.033704374
-0.05156056 -0.135966 0.07773054 0.14318384 -0.14609653 -0.03889015 -0.07566763 0.17111945
-0.07529599 -0.11847519 0.14823218 0.09994359 -0.21702936 -0.046685625 0.21642503 -0.23948401
-0.0029177421 0.025470551 0.18344818 0.07511025 -0.049679674 -0.09781306 0.20467967 0.13147476
-0.16877548 -0.089405805 -0.1794564 0.15522827 -0.012935308 -0.23429187 -0.10118343 -0.06709738
-0.044836473 -0.1851063 0.1183098 -0.2720903 -0.22137772 0.07140582 0.26773003 -0.35999504
0.08972773 0.0026933718 0.024813447 0.027202588 0.11258447 -0.034972988 0.07218954 0.054421812
-0.16170844 -0.22486044 -0.06447243 -0.109026685 0.18414725 -0.0636375 -0.009340264 -0.22689325
0.013275949 0.1036815 0.010666951 -0.04704665 0.20266546 -0.15231228 -0.18048762 0.08015883
-0.08295895 0.070695214 -0.20922723 0.15856354 0.1207352 -0.046564218 0.051232208 -0.16545793
-0.3567436 -0.21516462 -0.037409194 -0.04868226 -0.07110289 -0.06576839 0.12709862 0.0042737173
0.04711913 0.13056912 -0.16459318 -0.14018881 -0.026985424 0.090929404 -0.0015334102 -0.06231063
0.014097986 -0.055354554 -0.057223618 -0.1644911 0.039507065 0.051549513 0.0139541365 -0.032356333
0.34558335 0.11130057 -0.017377779 -0.18310389 0.162802 0.13569424 -0.075077176 0.008230653
0.08798287 -0.10996597 -0.014856594 -0.16298434 0.16355279 0.12542804 -0.13616745 0.037136205
00000000: cb7a 263d 22f3 7ebc cdbb 0dbe 5273 14bd
00000010: b331 3a3e a7d0 5ebd 7792 aa3b 7c5f 4a3d
00000020: 3d8b fb3d 5441 7bbe 9d86 623d 4de5 3dbc
00000030: 3dd4 24be 44e4 88bd 54e9 6dbe be1a 08be
00000040: e476 edbd ccbd 81be 90a6 e73d 0b10 a3bb
00000050: 6101 313e e0d0 623e 5e50 9bbc 8339 29be
00000060: 3ffe 14bd fa41 a3be 9cf2 25bd 8e35 b2bd
00000070: 2157 733d 69ef 8c3d 7e50 d83d be4a cd3d
00000080: 2f0f 893d 93be 65be 29f6 39bb f705 793e
00000090: b77a 50be 83e5 82bd 1dee abbc 2b97 d4bc
000000a0: 63bd fd3d be4b a83d 7413 643e aa41 463e
000000b0: 37bc 74be 415f 92be b9c3 40bd b2bf 65be
000000c0: ad38 313d 0956 27bd f955 1bbe 37b0 693d
000000d0: 3058 173e 6561 06be dd29 e8bd f33a fcbd
000000e0: 6808 7a3b e583 2f3e 2755 503d f320 bbbc
000000f0: 252b 6abc 814d 22bd c9ae ec3c 4bb2 a33d
00000100: 9584 73bd b269 8e3d c2b5 ac3d b3c3 65be
00000110: 56e2 01be 3ef6 7cbd 5f2b 503d 5eb4 9ebd
00000120: 8dd3 093b b54d 76bd e893 76bd 15f6 3abe
00000130: 5a5c bb3d 8b4b 3b3e 02d7 b73e ddda 223d
00000140: 9648 3a3e aa38 d2bc 818c 6e3e 7118 0fbe
00000150: 96b9 e1bd 15bd 24bd 4a8f be3d 41e5 39bd
00000160: b0dd 83bb 5714 8c3d 7bbe 31bd 5c9b a6bd
00000170: e36f a7bd 28e5 393d 51ab c3bc 4e5e 82bd
00000180: 4ade 053e 045f 00be 37c6 683e 967b 8cbd
00000190: 426a cfbd 2434 afbd af4d b53c 5121 d93b
000001a0: f458 42bc d847 c9bd 3c50 403d e1c2 c8bb
000001b0: b7b2 083e cd80 01be 7ce0 a83d ca0a 283d
000001c0: f818 4f3e 6474 d43d b6f4 0ebe 1c7d 97be
000001d0: 4acb 93bd c870 3e3e e2be d53d f051 a93e
000001e0: 0dae 433e 5c28 7cba 4b9d 583e dee9 d13c
000001f0: 3cfc b83d 9794 493d 59a2 193e 87eb dfbd
00000200: 1b2a d33d 2b87 083d d64a 35bd 8ecb 863e
00000210: 4665 cbbd 7b1d a43e 68c8 cb3d 68d8 2cbc
00000220: 8bea d4bd c919 1d3e 3c07 44be 2584 44be
00000230: b855 62be 2bba 2f3c 45b7 d6bd 990d 0a3d
00000240: 2a31 53bd ac3a 0bbe 3031 9f3d c99e 123e
00000250: 549a 15be 474b 1fbd a1f7 9abd f039 2f3e
00000260: c934 9abd 1fa3 f2bd 2dca 173e 3aaf cc3d
00000270: f23c 5ebe 6d39 3fbd 869e 5d3e 4c3b 75be
00000280: 9737 3fbb 9ea7 d03c d7d9 3b3e 67d3 993d
00000290: ea7c 4bbd 3752 c8bd 8c97 513e 52a1 063e
000002a0: 7bd3 2cbe 641a b7bd 6bc3 37be 29f4 1e3e
000002b0: 9dee 53bc 35ea 6fbe 4239 cfbd 5a6a 89bd
000002c0: 73a6 37bd 828c 3dbe 694c f23d 6b4f 8bbe
000002d0: d7b0 62be 373d 923d e913 893e 4551 b8be
000002e0: 2cc3 b73d 4883 303b 9245 cb3c f6d7 de3c
000002f0: b092 e63d d63f 0fbd 1cd8 933d 68e9 5e3d
00000300: e696 25be d141 66be 1f0a 84bd 6249 dfbd
00000310: 1991 3c3e 6154 82bd e807 19bc b456 68be
00000320: 5e83 593c f756 d43d 6fc4 2e3c fdb3 40bd
00000330: 8987 4f3e c0f7 1bbe bfd1 38be 502a a43d
00000340: 62e6 a9bd a7c8 903d aa3f 56be 7b5e 223e
00000350: 0444 f73d 1fba 3ebd ddd8 513d ce6d 29be
00000360: 19a7 b6be 1d54 5cbe 623a 19bd 0d67 47bd
00000370: 649e 91bd 94b1 86bd 2426 023e 8a0a 8c3b
00000380: fdff 403d e9b3 053e 1d8b 28be a88d 0fbe
00000390: 8910 ddbc 3239 ba3d b5fc c8ba 6e39 7fbd
000003a0: 3dfb 663c 75bb 62bd 5063 6abd 5b70 28be
000003b0: 29d2 213d 9525 533d e49f 643c 1388 04bd
000003c0: 4df0 b03e 8ef1 e33d d85b 8ebc 967f 3bbe
000003d0: 91b5 263e 6ef3 0a3e 10c2 99bd dcd9 063c
000003e0: 5d30 b43d d735 e1bd 1269 73bc 5ee5 26be
000003f0: 627a 273e 3570 003e 7b6f 0bbe 221c 183d

bias f4 [32]
-0.1281199 0.086578764 0.07587319 0.008780453 0.008560518 -0.10225535 0.13520545 -0.04884628
0.0022691146 0.027181167 -0.063424155 -0.11923287 -0.029123886 0.09077497 0.017510038 -0.1140375
-0.082342625 -0.040159516 -0.06946165 -0.05950183 -0.08056124 0.11168207 -0.06583322 -0.13456638
-0.011740215 0.120257676 0.059096254 -0.123907536 0.052094072 0.10942202 0.101967834 -0.039924942
00000000: dd31 03be 3550 b13d 6763 9b3d e4db 0f3c
00000010: 6a41 0c3c 416b d1bd 4c73 0a3e 0913 48bd
00000020: 6db5 143b 0aab de3c 86e4 81bd 5d30 f4bd
00000030: 3795 eebc 3ae8 b93d 3671 8f3c 7e8c e9bd
00000040: 40a3 a8bd 4e7e 24bd e941 8ebd 31b8 73bd
00000050: 4bfd a4bd 92b9 e43d 91d3 86bd c5cb 09be
00000060: 085a 40bc a849 f63d ea0e 723d 3cc3 fdbd
00000070: 9860 553d a718 e03d 83d4 d03d 5688 23bd

weight f4 [10, 32]
-0.39648 0.11658593 0.20051244 -0.11832641 0.32033354 -0.04676362 0.32027897 0.3293308
-0.11149472 0.15020902 0.073846154 0.12957488 0.079062484 -0.30334958 -0.107912175 0.02001621
0.5403131 0.24909388 -0.13069001 0.28952387 0.000116298645 0.0051525845 0.39016366 -0.1358437
-0.067021124 -0.051058337 0.10117979 -0.6029212 0.07594944 0.04631801 0.14311312 0.06611643
-0.078181304 -0.36484388 -0.1132252 -0.13280404 0.2899276 0.0025250316 -0.077133395 0.23461327
-0.08382127 -0.23551229 -0.26847675 -0.14412102 -0.15122478 -0.35359555 0.25253984 -0.24637468
-0.028429728 0.100916475 0.08016471 -0.13541949 0.28177464 -0.13557956 -0.12006237 0.04413233
0.1888459 -0.22227165 -0.35094157 0.6130037 -0.003151177 -0.02146219 0.107404485 0.09319376
0.10533842 0.04319508 0.26422778 0.12577905 -0.1390412 0.0040465235 0.16409653 -0.07890691
-0.626153 -0.40809587 0.072799854 -0.06286628 -0.21318942 0.41507256 0.2586151 -0.056281246
-0.15546037 0.06417584 0.083331786 0.055951618 0.14794038 -0.11659283 -0.2283697 -0.05807868
0.0871397 0.264346 0.089434385 0.36740643 -0.13418803 -0.22961116 -0.1842757 0.3101614
0.04081676 0.027530016 -0.30460224 -0.07719496 0.30789495 0.514304 0.37454352 0.16487134
0.29849014 0.17258985 -0.41076055 0.11015256 0.24837667 -0.38215524 -0.07919312 -0.14471814
0.04263399 0.1905964 0.1500247 -0.1553635 -0.10996465 0.044094596 -0.08237317 -0.11566608
0.39980957 0.34099692 0.22203395 -0.13467404 0.16177525 -0.24718837 0.15616906 0.33678603
0.0061753253 0.13136275 -0.209395 -0.34501448 0.28948748 0.12439332 -0.06706181 0.24205832
-0.20811512 0.21145487 -0.31579703 0.056236748 0.111262016 -0.015567877 0.029533206 -0.3954079
-0.2062362 0.26235378 -0.08990615 0.21654347 -0.24116613 -0.075892314 -0.19210629 -0.07787353
-0.35737136 -0.13803363 0.07794294 -0.2868597 0.13907272 0.029172264 -0.019888483 -0.050013486
-0.22172241 0.28779247 0.12587525 -0.25209317 0.45479137 0.1002413 0.024995834 -0.13532454
-0.16790493 -0.12090242 0.15269043 -0.20271438 -0.21595794 -0.13379072 -0.13212761 -0.090509504
0.16255094 -0.10074338 0.115300566 -0.16943505 -0.09657918 -0.27635005 -0.17476888 0.23238514
-0.04555109 -0.3632941 -0.02058756 0.28034633 -0.3127252 -0.0864091 0.2217491 0.07250827
0.029739039 -0.101794675 -0.04480021 -0.02209876 -0.014853558 -0.19536225 0.059094522 -0.22418849
-0.26114812 0.03830641 0.22809435 -0.18106045 0.34490862 0.05876578 0.2522583 0.14574884
-0.20861885 0.19176492 -0.1769906 -0.16401353 0.1051641 0.05255993 -0.029286962 -0.006687307
0.0469265 0.10814269 0.116057195 -0.036784094 -0.26778024 -0.14647959 0.28415537 0.29276153
0.04518819 0.22892271 -0.22477965 -0.083572455 -0.2792993 -0.05096675 -0.1903861 0.3305433
-0.10212087 -0.26032102 -0.2414473 -0.023462776 0.07634943 -0.12891458 -0.007912936 -0.31051728
0.264531 0.012238747 0.023676254 -0.34211865 -0.020287924 -0.06847163 -0.068448804 0.009038964
0.34055418 -0.04676172 0.16994633 -0.18583103 -0.20120402 0.24339797 -0.17117317 -0.26605198
00000000: 6dff cabe 9bc4 ee3d 2253 4d3e 1e55 f2bd
00000010: c202 a43e 368b 3fbd 9bfb a33e 0c9e a83e
00000020: 5857 e4bd 65d0 193e a73c 973d 47af 043e
00000030: 83eb a13d a350 9bbe 0f01 ddbd 09f9 a33c
00000040: f651 0a3f 7712 7f3e 9ad3 05be 793c 943e
00000050: 5ce5 f338 03d7 a83b 88c3 c73e 9c1a 0bbe
00000060: 5f42 89bd 8c22 51bd 5a37 cf3d 0b59 1abf
00000070: 618b 9b3d f4b7 3d3d 3f8c 123e 0d68 873d
00000080: 851d a0bd d1cc babe 9de2 e7bd c8fd 07be
00000090: 6471 943e 007b 253b 1df8 9dbd 763e 703e
000000a0: 7caa abbd 222a 71be c975 89be 7694 13be
000000b0: abda 1abe 7a0a b5be e74c 813e a549 7cbe
000000c0: 76e5 e8bc 4cad ce3d 652d a43d 68ab 0abe
000000d0: c444 903e 5ed5 0abe 43e3 f5bd 1ac4 343d
000000e0: d260 413e 2e9b 63be 9dae b3be cfed 1c3f
000000f0: fa83 4ebb 7ad1 afbc e2f6 db3d 5fdc be3d
00000100: abbb d73d 53ed 303d dd48 873e 39cc 003e
00000110: d160 0ebe b398 843b ec08 283e f299 a1bd
00000120: 904b 20bf f1f1 d0be 1718 953d 09c0 80bd
00000130: 544e 5abe 6484 d43e 3369 843e 2a87 66bd
00000140: 0131 1fbe 9f6e 833d dba9 aa3d 862d 653d
00000150: af7d 173e 39c8 eebd bfd9 69be e9e3 6dbd
00000160: 4d76 b23d 5c58 873e 6029 b73d b21c bc3e
00000170: 9668 09be 301f 6bbe c5b2 3cbe 7acd 9e3e
00000180: 7a2f 273d a186 e13c d3f4 9bbe 6418 9ebd
00000190: 68a4 9d3e 6da9 033f 2bc4 bf3e 08d4 283e
000001a0: b3d3 983e 65bb 303e 354f d2be aa97 e13d
000001b0: 7456 7e3e daa9 c3be 0130 a2bd fe30 14be
000001c0: fba0 2e3d b42b 433e 13a0 193e 9c17 1fbe
000001d0: 2535 e1bd 899c 343d 44b3 a8bd 56e2 ecbd
000001e0: d7b3 cc3e 2697 ae3e de5c 633e fee7 09be
000001f0: 69a8 253e f31e 7dbe c8ea 1f3e 386f ac3e
00000200: 625a ca3b f583 063e a56b 56be bda5 b0be
00000210: b437 943e edc1 fe3d b457 89bd 23de 773e
00000220: 211c 55be a087 583e 26b0 a1be 8158 663d
00000230: 57dd e33d 6910 7fbc 9fef f13c e772 cabe
00000240: 952f 53be 3c53 863e b720 b8bd 92bd 5d3e
00000250: 41f4 76be 6e6d 9bbd 83b7 44be 287c 9fbd
00000260: 61f9 b6be b058 0dbe 8ca0 9f3d 46df 92be
00000270: 1469 0e3e acfa ee3c 2ced a2bc f1da 4cbd
00000280: 330b 63be 8959 933e 71e5 003e 5b12 81be
00000290: 6ada e83e 504b cd3d 10c4 cc3c 8492 0abe
000002a0: 45ef 2bbe b09b f7bd e15a 1c3e 5c94 4fbe
000002b0: 1424 5dbe 6f00 09be 764c 07be 0c5d b9bd
000002c0: c173 263e 8c52 cebd b422 ec3d 6280 2dbe
000002d0: 4ecb c5bd c17d 8dbe 9df6 32be 5ff6 6d3e
000002e0: c893 3abd af01 babe 3ea7 a8bc 8e89 8f3e
000002f0: 841d a0be 41f7 b0bd 3212 633e 377f 943d
00000300: 499f f33c ba79 d0bd 6d80 37bd 7508 b5bc
00000310: 565c 73bc 0b0d 48be 190d 723d ab91 65be
00000320: 35b5 85be 2fe7 1c3d 9191 693e e967 39be
00000330: dd97 b03e 63b4 703d 0028 813e 2f3f 153e
00000340: 2ea0 55be 065e 443e 063d 35be 2af3 27be
00000350: 4760 d73d 1549 573d 36eb efbc 3221 dbbb
00000360: 0036 403d ea79 dd3d 65af ed3d ebaa 16bd
00000370: 7e1a 89be bffe 15be d07c 913e d7e4 953e
00000380: 4017 393d b76a 6a3e a32c 66be 0928 abbd
00000390: 5100 8fbe 83c2 50bd 93f4 42be f93c a93e
000003a0: bf24 d1bd cc48 85be f63d 77be 0235 c0bc
000003b0: 175d 9c3d 2f02 04be 42a5 01bc 1ffc 9ebe
000003c0: 9b70 873e 0785 483c b4f4 c13c 2d2a afbe
000003d0: dc32 a6bc db3a 8cbd e32e 8cbd 2a18 143c
000003e0: 1e5d ae3e 3889 3fbd 6906 2e3e 7d4a 3ebe
000003f0: 6d08 4ebe 513d 793e 0548 2fbe f737 88be

bias f4 [10]
0.2295459 -0.056356795 -0.05393156 0.17450155 -0.14058512 -0.06600414 0.028841969 -0.12623711
0.07325306 0.0132038025
00000000: 150e 6b3e 62d6 66bd 57e7 5cbd 89b0 323e
00000010: 8cf5 0fbe 2e2d 87bd fe45 ec3c 4d44 01be
00000020: b305 963d c354 583c
